Framework/STAEN 135233/model.pt (torch_old, 70381 bytes, 35 tensors)

weight_ih_l0 f4 [60, 6]
-0.23292881 0.020793166 -0.1876372 -0.41592172 -0.15852879 -0.0056538056 0.4600926 0.14099182
-0.2553305 -0.08340232 0.115330346 0.18374333 0.3136335 0.09050636 -0.33382252 -0.0658018
0.024607977 0.028043834 0.3392354 0.25218612 0.31029576 0.3761629 0.39311224 0.37494603
0.19533789 0.21491663 -0.2210537 -0.12186469 0.0033905923 0.20323174 -0.26382565 -0.5898369
0.21798684 0.09790362 -0.09696093 -0.013390801 0.14915985 0.15962121 0.053358912 0.030278554
-0.07657248 -0.07220499 -0.08342292 0.18495227 0.09243117 0.075792894 0.07485651 0.22600758
0.16955836 -0.7881164 -0.2684132 -0.09910877 0.034443527 0.021305615 0.013332145 0.16756767
-0.18863884 -0.10564837 -0.37961254 -0.3764887 0.120261036 -0.15611666 -0.2219314 -0.13546945
0.044359934 -0.12244755 -0.06555526 -0.09096663 -0.16608727 -0.14077263 0.16869116 -0.14741807
0.3084792 0.19973455 0.34519762 0.45129144 0.40826476 -0.010013176 -0.37246475 -0.098932624
-0.07000469 -0.1887696 0.22966272 0.16318803 0.41232947 -0.17811283 -0.13754193 0.16607708
0.114700474 0.2194951 0.0071571837 0.36454764 0.29041523 0.22632886 0.1361767 0.4789637
0.0028652507 -0.065170355 0.07589062 -0.033636108 0.26956046 0.012191803 0.06329955 0.0031902706
0.13830659 -0.016059322 -0.15596613 0.17454718 -0.19819425 -0.093753 -0.20507942 -0.12361226
-0.21233685 -0.012323704 0.14835429 0.021814613 0.24664067 0.080885865 0.1437628 0.18153833
0.14452974 0.34176093 -0.24350403 0.23488158 0.2645829 0.17318787 -0.08104861 -0.047474943
0.35438937 0.20004378 -0.18161939 -0.07677568 -0.15216643 -0.32097313 -0.5333274 -0.31028387
-0.47949272 -0.34652466 -0.11388766 -0.11464236 0.26717567 -0.13407867 0.008699629 0.14331001
-0.04368296 -0.14498836 -0.12884179 -0.26129454 -0.2158757 -0.2406862 -0.4093788 -0.00075809215
-0.19716826 -0.06915471 0.33825386 0.34131724 0.4691226 0.30446467 0.24322821 0.24792536
0.14622821 0.27348554 -0.14583819 -0.026757197 -0.13307709 0.036337193 0.15848593 0.27870876
-0.5508301 -0.59108853 -0.38096184 -0.2684352 0.08860665 -0.08047216 -0.43140593 -0.23064291
-0.3006607 -0.10890564 -0.3629341 -0.01563194 0.3226947 0.43513227 0.24340644 0.19073594
0.09316885 0.13613044 -0.20775071 -0.060040817 -0.1555638 0.2177481 -0.053276177 0.12018729
-0.15453428 0.21391739 0.21276824 0.08519687 0.08188046 0.009174318 -0.24453111 0.27162445
-0.054905917 0.03734002 -0.024681736 0.20386495 -0.5346453 -0.27171677 -0.12232346 -0.15277936
-0.07473511 0.11942551 -0.25417867 -0.41626197 -0.22184193 0.059629872 0.051927608 0.10104173
-0.41069993 0.07021137 -0.4107245 -0.34345812 -0.4924958 -0.3970674 -0.5978426 -0.6346642
0.25270283 0.40406147 0.13859925 0.08041739 -0.5965398 -0.35376966 -0.40883514 -0.11876273
0.09281534 0.11139572 -0.73719394 -0.5671435 0.42759362 0.2725008 -0.030133346 0.054471917
0.06274691 0.14937027 -0.3162447 0.09438833 0.24216473 -0.092832655 -0.13242416 -0.41156298
0.16266015 0.16642766 -0.08035222 -0.08415541 0.06346531 0.44222623 0.15769102 0.20750906
00000000: e484 6ebe 6e56 aa3c f723 40be b1f3 d4be
00000010: 5f55 22be 8f43 b9bb 4291 eb3e 2960 103e
00000020: aeba 82be d6ce aabd 5132 ec3d 3627 3c3e
00000030: 9294 a03e 665b b93d c9ea aabe 18c3 86bd
00000040: ab96 c93c 2fbc e53c 43b0 ad3e 8a1e 813e
00000050: 16df 9e3e 6c98 c03e 0246 c93e edf8 bf3e
00000060: a806 483e 1b13 5c3e e75b 62be 3294 f9bd
00000070: b334 5e3b fb1b 503e 2814 87be 8dff 16bf
00000080: f137 5f3e b181 c83d 7493 c6bd 1765 5bbc
00000090: 5cbd 183e be73 233e e08e 5a3d bb0a f83c
000000a0: 08d2 9cbd 36e0 93bd a3d9 aabd 2164 3d3e
000000b0: 8e4c bd3d 4e39 9b3d 5f4e 993d 886e 673e
000000c0: b5a0 2d3e ffc1 49bf 746d 89be 8af9 cabd
000000d0: a814 0d3d 1d89 ae3c 126f 5a3c dc96 2b3e
000000e0: 8a2a 41be 2c5e d8bd 935c c2be 20c3 c0be
000000f0: 6b4b f63d 0cdd 1fbe fc41 63be 81b8 0abe
00000100: c3b2 353d c8c5 fabd d641 86bd b64c babd
00000110: c812 2abe b326 10be 60bd 2c3e c3f4 16be
00000120: fcf0 9d3e 3787 4c3e bebd b03e ac0f e73e
00000130: 1408 d13e 4e0e 24bc b3b3 bebe 309d cabd
00000140: 9e5e 8fbd d14c 41be b42c 6b3e c31a 273e
00000150: d91c d33e 3663 36be cbd7 0cbe 1c10 2a3e
00000160: 15e8 ea3d 53c3 603e cf86 ea3b fda5 ba3e
00000170: 4eb1 943e c1c2 673e e871 0b3e bb3a f53e
00000180: eec6 3b3b 0978 85bd 8b6c 9b3d 04c6 09bd
00000190: d403 8a3e 21c0 473c 32a3 813d dc13 513b
000001a0: 3ea0 0d3e d78e 83bc 96b5 1fbe 7fbc 323e
000001b0: 6ff3 4abe 9301 c0bd 5700 52be 6d28 fdbd
000001c0: d56e 59be 5ce9 49bc 30ea 173e 8fb4 b23c
000001d0: 5f8f 7c3e 7da7 a53d 8e36 133e 2fe5 393e
000001e0: 9bff 133e 4afb ae3e 1f59 79be cc84 703e
000001f0: 6977 873e 2958 313e d0fc a5bd 1675 42bd
00000200: 8672 b53e 47d8 4c3e 6ffa 39be 913c 9dbd
00000210: 84d1 1bbe 9756 a4be 2588 08bf 87dd 9ebe
00000220: 1280 f5be ae6b b1be ef3d e9bd 9dc9 eabd
00000230: 40cb 883e eb4b 09be e488 0e3c dcbf 123e
00000240: e7ec 32bd d477 14be 1aef 03be 66c8 85be
00000250: 850e 5dbe 7176 76be 199a d1be b4ba 46ba
00000260: 7ae6 49be fca0 8dbd 9c2f ad3e 22c1 ae3e
00000270: d630 f03e cbe2 9b3e d110 793e 25e0 7d3e
00000280: d9bc 153e 4c06 8c3e 9b56 15be e931 dbbc
00000290: 5c45 08be 4fd6 143d 234a 223e eab2 8e3e
000002a0: 3403 0dbf 9451 17bf 6e0d c3be 5770 89be
000002b0: 6777 b53d 96ce a4bd 3de1 dcbe a82d 6cbe
000002c0: 33f0 99be ec09 dfbd 80d2 b9be 8e0e 80bc
000002d0: 3d38 a53e a8c9 de3e 8a3f 793e 4850 433e
000002e0: 4fcf be3d c765 0b3e 9abc 54be 5ced 75bd
000002f0: 1e4c 1fbe 5cf9 5e3e 1f38 5abd c124 f63d
00000300: 3c3e 1ebe 290d 5b3e ebdf 593e b27b ae3d
00000310: f1b0 a73d e14f 163c 5d66 7abe 5c12 8b3e
00000320: 07e5 60bd d9f1 183d 5a31 cabc f9c1 503e
00000330: 84de 08bf 761e 8bbe b984 fabd 3172 1cbe
00000340: b90e 99bd 5d95 f43d b523 82be 4a20 d5be
00000350: 882a 63be 743e 743d 0bb2 543d f7ee ce3d
00000360: 4347 d2be fbca 8f3d 7b4a d2be bed9 afbe
00000370: 6928 fcbe 6b4c cbbe 360c 19bf 5a79 22bf
00000380: 4462 813e 25e1 ce3e f6ec 0d3e dfb1 a43d
00000390: d5b6 18bf 4c21 b5be d752 d1be e039 f3bd
000003a0: f815 be3d 7023 e43d beb8 3cbf 5130 11bf
000003b0: 8ded da3e 3a85 8b3e 35da f6bc f21d 5f3d
000003c0: 7481 803d 85f4 183e d3ea a1be ab4e c13d
000003d0: 08fa 773e 0c1f bebd 339a 07be 62b8 d2be
000003e0: 6290 263e 036c 2a3e b48f a4bd ac59 acbd
000003f0: 1afa 813d 7a6b e23e c179 213e 417d 543e

weight_hh_l0 f4 [60, 20]
0.041266967 0.0018783157 -0.041747462 0.0020059447 -0.13798691 0.118118495 -0.10696041 0.27215254
0.009019675 -0.0035267952 -0.12640917 -0.07998532 0.217683 -0.22785102 -0.21549074 0.19495884
0.025851468 -0.10612791 -0.07410663 -0.07185123 0.17205144 0.008325773 0.014878598 0.03568144
-0.6427901 0.08980107 -0.07135468 0.16348551 0.17539537 0.07048593 0.06403994 0.15412754
-0.0401778 0.030369643 -0.09784629 -0.026029471 -0.29527697 -0.050222214 9.660328e-05 0.1147721
0.2756498 -0.8283961 0.10393885 0.9716426 -1.1746515 0.16370007 0.050762914 -0.2635916
-0.016628781 0.6985358 -0.008892204 -0.7884648 0.25388524 -0.20230682 0.17359112 0.552183
-1.4189351 0.13362531 -0.21314076 0.37604436 -0.17541203 0.23100017 -0.15526941 0.0488112
0.09914894 0.025343148 -0.017309846 0.06159777 0.032565497 0.16018961 -0.106897816 -0.23999225
-0.11334311 0.1514458 0.22157404 0.063378945 0.066119134 -0.07581278 -0.1239003 0.012780417
0.24593374 -0.158272 0.25203055 0.17254874 -0.3878281 0.034660976 -0.21117486 0.16977763
-0.14599651 0.11697776 0.1362384 -0.017963527 0.079861514 -0.12920147 -0.016278518 -0.014509663
-0.32993641 0.18502563 0.18982242 0.06943348 -0.21432777 0.12646002 -0.12021218 0.2049555
0.24286848 -0.051815502 0.25182763 -0.013041073 -0.4281547 -0.1347295 0.042354863 -0.2943824
0.16157627 -0.31868443 -0.31951022 0.07257881 -0.03286481 -0.05235982 -0.4387104 -0.16753717
0.15529044 -0.054779254 -0.13123572 -0.0016775249 0.034650475 -0.19484797 -0.046765443 0.14730912
0.11198954 0.14260876 0.15630636 0.12179495 0.14656313 0.1706253 -0.17847644 0.061893165
0.06554549 0.027365629 0.13971485 0.080506995 0.007522856 -0.17273162 -0.2935476 -0.16306321
0.35627106 0.212655 -0.13506547 0.034054164 -0.0107531445 -0.0460223 0.16525437 -0.20989387
-0.028841784 -0.12004157 0.0631215 0.13933402 -0.12889124 0.17508216 -0.022474201 -0.022282964
-0.17584611 -0.075416 -0.26807898 0.095829695 -0.07783375 -0.046562508 0.082342826 0.007819792
-0.44155097 -0.24043557 0.029230723 0.0535438 0.12135266 -0.004699993 -0.21451147 -0.20165306
-0.24706382 0.18420395 -0.11226283 -0.15440695 0.18854058 -0.030412892 0.043217856 -0.038665634
0.15220973 0.094023176 0.11707404 0.2108189 -0.033458985 0.04145424 -0.21173015 -0.0019095184
0.17536348 -0.18445706 -0.19189502 0.04783176 -0.08055949 -0.012616694 0.17405978 -0.24552597
0.1803893 -0.19474953 -0.13466449 0.2133018 0.11596955 0.046872742 0.051269487 0.11678757
0.15134037 -0.013458415 0.035115194 0.0064449804 -0.09683731 -0.00172585 -0.2368722 -0.19697201
0.20349301 -0.11990434 -0.10478317 -0.0018781153 0.31204027 0.043223698 -0.0936359 -0.14035715
0.2670892 -0.16774102 0.08368854 -0.02937892 0.003945001 -0.27333328 0.34029788 -0.20373309
-0.0579359 -0.040446613 -0.115206964 -0.12617065 0.08941168 -0.19944954 0.02601546 0.11150468
-0.20555983 -0.12741281 0.07093159 -0.027186502 -0.08300856 0.17425443 -0.09408371 -0.04740547
0.15523247 -0.14629728 -0.00458695 -0.11590817 0.089764304 0.25515237 0.0991889 -0.26090106
00000000: 8d07 293d d131 f63a 63ff 2abd 2b76 033b
00000010: 714c 0dbe 1ce8 f13d 0f0e dbbd 9457 8b3e
00000020: 42c7 133c ce21 67bb 6871 01be 58cf a3bd
00000030: 4be8 5e3e c751 69be 9ba9 5cbe 4aa3 473e
00000040: 75c6 d33c 9759 d9bd 38c5 97bd bd26 93bd
00000050: 412e 303e d368 083c 5dc5 733c b426 123d
00000060: e48d 24bf a0e9 b73d 6722 92bd bf68 273e
00000070: d89a 333e ed5a 903d 5f27 833d 9cd3 1d3e
00000080: 7a91 24bd c2c9 f83c a363 c8bd c23b d5bc
00000090: 8b2e 97be cfb5 4dbd 7e97 ca38 a20d eb3d
000000a0: f821 8d3e c411 54bf e4dd d43d 92bd 783f
000000b0: fb5a 96bf fea0 273e c6ec 4f3d 7af5 86be
000000c0: 1539 88bc 3ed3 323f 9bb0 11bc d4d8 49bf
000000d0: 3ffd 813e 8529 4fbe dfc1 313e dd5b 0d3f
000000e0: aa9f b5bf 13d5 083e 9241 5abe e388 c03e
000000f0: 369f 33be 4f8b 6c3e f2fe 1ebe 41ee 473d
00000100: 990e cb3d 6f9c cf3c 61cd 8dbc f14d 7c3d
00000110: 6663 053d bf08 243e 3eed dabd 87c0 75be
00000120: 6f20 e8bd 9c14 1b3e 4ee4 623e d2cc 813d
00000130: 7869 873d bb43 9bbd 71bf fdbd f464 513c
00000140: 0ed6 7b3e 0e12 22be 260a 813e 9eb0 303e
00000150: 6891 c6be abf8 0d3d 393e 58be 30da 2d3e
00000160: 1c80 15be 0992 ef3d 1482 0b3e 3f28 93bc
00000170: 6f8e a33d 644d 04be 875a 85bc f0b9 6dbc
00000180: 6ded a8be 5c77 3d3e cf60 423e 2433 8e3d
00000190: bd78 5bbe bc7e 013e ce31 f6bd dbdf 513e
000001a0: 84b2 783e 7e3c 54bd 8def 803e 3aaa 55bc
000001b0: 1837 dbbe 88f6 09be 4b7c 2d3d 4ab9 96be
000001c0: 4074 253e 9b2a a3be d896 a3be 33a4 943d
000001d0: 409d 06bd 4077 56bd a69e e0be dd8e 2bbe
000001e0: 7504 1f3e 3660 60bd a862 06be 65e0 dbba
000001f0: a8ed 0d3d 3a86 47be 1f8d 3fbd 34d8 163e
00000200: c65a e53d 0808 123e c60e 203e a16f f93d
00000210: a514 163e 66b8 2e3e 87c2 36be b083 7d3d
00000220: b73c 863d e22d e03c 6911 0f3e dae0 a43d
00000230: 4a82 f63b 8fe0 30be df4b 96be 0bfa 26be
00000240: 2969 b63e 3bc2 593e 9a4e 0abe 617c 0b3d
00000250: f52d 30bc e181 3cbd 7138 293e 6bee 56be
00000260: 9b45 ecbc 5bd8 f5bd d845 813d 94ad 0e3e
00000270: 11fc 03be bd48 333e d11b b8bc c38a b6bc
00000280: 0111 34be b473 9abd a641 89be 5c42 c43d
00000290: 4d67 9fbd 54b8 3ebd 5ba3 a83d 961e 003c
000002a0: f812 e2be be34 76be 4575 ef3c be50 5b3d
000002b0: be87 f83d 6602 9abb e5a8 5bbe 247e 4ebe
000002c0: 4cfe 7cbe f69f 3c3e 0eea e5bd db1c 1ebe
000002d0: c810 413e 7524 f9bc 3505 313d db5f 1ebd
000002e0: dedc 1b3e 398f c03d 84c4 ef3d e9e0 573e
000002f0: 4a0c 09bd eccb 293d cacf 58be ce48 faba
00000300: 7c92 333e 50e2 3cbe 2180 44be 3ceb 433d
00000310: 60fc a4bd 40b6 4ebc ba3c 323e 296b 7bbe
00000320: f9b7 383e 6c6c 47be 7de5 09be c96b 5a3e
00000330: 7281 ed3d a2fd 3f3d f4ff 513d 522e ef3d
00000340: f8f8 1a3e af80 5cbc f3d4 0f3d 6a30 d33b
00000350: a452 c6bd eb35 e2ba a08e 72be 08b3 49be
00000360: 7960 503e 6890 f5bd 8f98 d6bd 182b f6ba
00000370: bec3 9f3e 550b 313d 2ec4 bfbd c9b9 0fbe
00000380: eabf 883e 4dc4 2bbe e664 ab3d 10ac f0bc
00000390: 1145 813b 57f2 8bbe 863b ae3e 689f 50be
000003a0: 324e 6dbd 59ab 25bd a1f1 ebbd e132 01be
000003b0: 791d b73d 803c 4cbe 601e d53c 915c e43d
000003c0: 477e 52be 8178 02be 9544 913d 3ab6 debc
000003d0: 6400 aabd c16f 323e f6ae c0bd 3d2c 42bd
000003e0: 43f5 1e3e f4ce 15be 204e 96bb 4361 edbd
000003f0: 59d6 b73d 55a3 823e 8d23 cb3d d394 85be

bias_ih_l0 f4 [60]
-0.2657143 -0.056620836 0.10526756 0.13864645 0.0018757748 -0.04171535 0.22275813 0.18991013
-0.23143664 -0.28919977 -0.12983972 -0.08901935 0.023455024 0.23230124 -0.03695483 0.31300378
0.002956796 -0.0053944 -0.09894661 0.27351582 0.19710873 -0.014576719 -0.24405207 -0.12691732
-0.2736245 0.09289555 0.3347742 0.43913946 -0.041204073 -0.27006707 -0.037175458 0.27884987
-0.16207054 0.20055617 0.16453476 0.035913102 -0.19267906 0.046464194 -0.0747274 0.3156365
-0.025163723 0.075473264 -0.22598949 -0.07484217 -0.02345186 0.01615992 -0.06975472 -0.07047123
-0.31176367 -0.19685079 0.14392658 -0.06572631 0.22061762 0.15617628 -0.24974675 -0.01991647
-0.086513706 -0.09122397 -0.10196526 0.303087
00000000: b40b 88be 40eb 67bd 8596 d73d 56f9 0d3e
00000010: 8fdc f53a b7dd 2abd b51a 643e cd77 423e
00000020: bafd 6cbe fe11 94be b4f4 04be c74f b6bd
00000030: c024 c03c 60e0 6d3e f35d 17bd 0842 a03e
00000040: cec6 413b 82c3 b0bb 85a4 cabd 440a 8c3e
00000050: dfd6 493e 31d3 6ebc c9e8 79be 9df6 01be
00000060: 8318 8cbe 0640 be3d 8667 ab3e e3d6 e03e
00000070: 9ac5 28bd 3b46 8abe 4b45 18bd 69c5 8e3e
00000080: d2f5 25be 995e 4d3e cd7b 283e 9e19 133d
00000090: a94d 45be 3d51 3e3d ae0a 99bd 1b9b a13e
000000a0: 2724 cebc ba91 9a3d ca69 67be da46 99bd
000000b0: 1d1e c0bc cf61 843c 90db 8ebd 3853 90bd
000000c0: 7d9f 9fbe 4193 49be 7d61 133e 849b 86bd
000000d0: 96e9 613e adec 1f3e 9dbd 7fbe dd27 a3bc
000000e0: 192e b1bd a2d3 babd 2ad3 d0bd 382e 9b3e

bias_hh_l0 f4 [60]
-0.106208816 0.21800411 0.122633114 0.01973375 -0.15890357 -0.3506703 0.16666593 0.3586771
-0.01983662 -0.18621302 -0.08598529 -0.08036276 0.22947422 0.10068242 0.1786174 0.24752742
-0.1073343 -0.17147927 0.17768657 0.3788306 -0.08380988 0.0204066 -0.40025842 0.20754375
-0.20302208 0.33150274 0.045315705 0.4490917 -0.14980312 -0.34051958 -0.018962234 0.14671274
0.021540456 -0.006725644 -0.16913348 0.014847935 -0.14476678 0.019165447 -0.03254683 0.29282174
-0.0033162173 -0.2541895 -0.3741147 0.18212827 -0.16638812 -0.2994908 -0.036088888 0.1461263
-0.28725797 -0.04959006 0.16256508 0.10722055 -0.070974804 0.1954016 -0.24146397 -0.13808091
-0.15029253 0.103753254 -0.10112185 -0.07015851
00000000: 0284 d9bd 783c 5f3e 1227 fb3d aca8 a13c
00000010: 9eb7 22be 0f8b b3be 79aa 2a3e 86a4 b73e
00000020: 6880 a2bc a0ae 3ebe 0e19 b0bd 3b95 a4bd
00000030: 4afb 6a3e 9632 ce3d 7be7 363e d477 7d3e
00000040: 16d2 dbbd 4398 2fbe 78f3 353e 16f6 c13e
00000050: 84a4 abbd be2b a73c acee ccbe 5986 543e
00000060: 05e5 4fbe baba a93e f69c 393d 59ef e53e
00000070: fd65 19be 9558 aebe b056 9bbc dd3b 163e
00000080: 9c75 b03c cb62 dcbb 5431 2dbe c144 733c
00000090: be3d 14be db00 9d3c d34f 05bd bbec 953e
000000a0: e554 59bb 2025 82be f68b bfbe d57f 3a3e
000000b0: a661 2abe dc56 99be f1d1 13bd 22a2 153e
000000c0: 7a13 93be f21e 4bbd 7677 263e 7396 db3d
000000d0: 3d5b 91bd 5b17 483e 5542 77be 1565 0dbe
000000e0: 49e6 19be 967c d43d f918 cfbd 44af 8fbd

weight f4 [20, 20]
0.61499375 0.39771602 -0.16191489 -0.27523726 0.3127488 -0.6575876 0.099686034 0.04023943
-0.26592124 -0.25755894 -0.18245827 0.22023678 -0.09741875 0.20899972 -0.3778508 0.048735525
-0.7094961 -0.42281613 -0.045806985 -0.37073112 -0.10695602 -0.1594615 0.18890291 -0.030593354
0.34055892 -0.12868594 0.38450268 0.21675211 0.30327857 -0.19516838 -0.2650351 -0.056400917
0.5717682 -0.028812135 0.09743145 0.06992735 0.42399272 -0.6209442 0.12802818 -0.8438786
-0.2277238 0.13063538 -0.33509755 -0.16289529 0.06633607 0.12752631 -0.051326096 -0.1338458
-0.34271976 -0.25545287 -0.037393402 -0.115976855 0.03095218 -0.4983665 0.2970619 0.1792915
-0.26581934 0.21068016 -0.4703925 -0.055362538 -0.05635875 0.0041082543 0.26661244 -0.24452086
-0.044551674 0.07911356 -0.0013846514 0.038753435 0.19636928 0.18294525 0.16547525 -0.24584089
0.060399525 -0.16577852 0.2785777 0.028182123 0.3234071 0.1816652 -0.026405815 -0.017479168
-0.16263402 0.21484233 -0.33345702 -0.3744163 0.0067641805 0.0019108736 -0.26191172 -0.17046736
-0.10803773 -0.20171587 0.33326504 0.20555346 -0.2624732 0.0580585 -0.034499526 -0.3502043
-0.13844554 0.21605773 -0.13231409 0.03028094 -0.32497638 0.37818596 -0.045443106 -0.3364816
0.13797826 -0.03652636 -0.16207369 -0.06139957 -0.06066984 0.004731166 0.1001501 0.06593674
-0.19612929 0.23828128 0.042748038 -0.50075084 0.5543836 0.084983364 0.16503502 0.15085101
0.4649823 -0.057802904 0.43114638 0.015943876 0.25095242 -0.04580779 -0.010194165 -0.12959701
0.32173145 0.31473234 0.27352628 -0.16708128 -0.15566011 0.3677094 0.04228694 0.062875345
0.10836778 -0.044344094 0.2970665 -0.12894392 -0.3291647 -0.104929045 0.08683569 -0.086667456
0.18748203 -0.060266085 0.13808338 -0.2224078 0.121835314 -0.16761099 -0.22643949 -0.14082457
0.06044827 0.16408022 -0.06939276 0.018744342 0.78881854 -0.34926116 0.28476867 -0.25684556
0.1001336 0.09121485 -0.46525112 0.15432236 -0.2247913 -0.08820479 0.08597117 -0.054234374
-0.0047091716 -0.08403398 -0.22482316 -0.18279426 0.28891194 0.054170642 -0.11563934 -0.09405725
-0.21689627 0.14447953 0.22030337 -0.06884845 -0.16107817 0.1236344 -0.08915804 0.0544854
-0.03255478 0.21640311 0.046222277 0.0010391026 -0.056084733 -0.023344392 0.17983209 -0.078250825
0.25151685 -0.010001931 -0.1875583 -0.16305311 -0.18118337 -0.19415806 0.15970355 -0.05630841
-0.17813581 0.1170812 0.21378511 0.10015232 0.107401 0.069104806 -0.06607522 -0.04690501
0.06735245 0.1191957 -0.21597911 -0.1844255 0.10525118 0.045839224 0.19435751 -0.18051128
0.17893575 -0.06382921 0.14899126 -0.19165382 -0.50227255 0.2285714 0.07862135 -0.4208222
0.40040952 0.3528518 -0.016002258 -0.010598419 0.2615053 -0.33493242 0.017818421 0.059587598
-0.07798194 0.13165568 0.35161516 -0.55248433 0.58696747 -0.03625486 0.09223075 -0.12784186
-0.034654364 0.17475839 0.38418943 -0.049238645 -0.19683751 0.2129268 -0.090795495 -0.2601436
0.28422597 0.25746575 0.07580261 0.035315096 -0.24394183 -0.09795604 -0.028480083 0.069293305
00000000: 3b70 1d3f 6fa1 cb3e 04cd 25be e6eb 8cbe
00000010: 9c20 a03e a957 28bf 3128 cc3d 1ad2 243d
00000020: d426 88be c4de 83be 57d6 3abe c085 613e
00000030: 7b83 c7bd 0604 563e a975 c1be e79e 473d
00000040: 89a1 35bf 5b7b d8be 1ba0 3bbd 78d0 bdbe
00000050: c20b dbbd e049 23be c46f 413e ea9e fabc
00000060: bd5d ae3e 3fc6 03be 89dd c43e 44f4 5d3e
00000070: 5447 9b3e 38da 47be aeb2 87be a604 67bd
00000080: 675f 123f 6d07 ecbc 248a c73d 1236 8f3d
00000090: 9315 d93e 33f6 1ebf d219 033e 6e08 58bf
000000a0: 6e30 69be 48c5 053e e891 abbe 06ce 26be
000000b0: 35db 873d 4296 023e 503b 52bd e00e 09be
000000c0: f778 afbe b8ca 82be d329 19bd 4685 edbd
000000d0: 6d8f fd3c e529 ffbe 7f18 983e 3198 373e
000000e0: 7919 88be 8abc 573e 49d7 f0be d4c3 62bd
000000f0: 6fd8 66bd 899e 863b 6d81 883e ad63 7abe
00000100: d17b 36bd 4a06 a23d 317d b5ba ecbb 1e3d
00000110: 0715 493e 0056 3b3e 5872 293e b7bd 7bbe
00000120: 7e65 773d d8c1 29be bca1 8e3e 32de e63c
00000130: 9e95 a53e 7106 3a3e 0251 d8bc 7930 8fbc
00000140: 8889 26be a1ff 5b3e e1ba aabe 7eb3 bfbe
00000150: 0fa6 dd3b 4776 fa3a 4b19 86be ff8e 2ebe
00000160: e342 ddbd 9b8e 4ebe b7a1 aa3e 9b7c 523e
00000170: e362 86be c0ce 6d3d 604f 0dbd fa4d b3be
00000180: abc4 0dbe 3d3e 5d3e 587d 07be bc0f f83c
00000190: 4e63 a6be 97a1 c13e 8d22 3abd 5147 acbe
000001a0: 2c4a 0d3e aa9c 15bd a5f6 25be 1e7e 7bbd
000001b0: f080 78bd e607 9b3b 7f1b cd3d d709 873d
000001c0: 1ed6 48be 0200 743e 9118 2f3d 3531 00bf
000001d0: 15ec 0d3f c20b ae3d f1fe 283e b078 1a3e
000001e0: 2912 ee3e bdc2 6cbd 38bf dc3e bb9c 823c
000001f0: d67c 803e f3a0 3bbd 6d05 27bc 14b5 04be
00000200: fcb9 a43e 9924 a13e a30b 8c3e 5b17 2bbe
00000210: 5d65 1fbe 6844 bc3e 1235 2d3d cac4 803d
00000220: edef dd3d 27a2 35bd 1a19 983e e009 04be
00000230: 4788 a8be 0ae5 d6bd e9d6 b13d b57e b1bd
00000240: 4afb 3f3e 92d9 76bd bb65 0d3e dfbe 63be
00000250: cb84 f93d 37a2 2bbe c1df 67be 5134 10be
00000260: 9b98 773d a504 283e cb1d 8ebd bc8d 993c
00000270: 03f0 493f 5cd2 b2be 33cd 913e 4381 83be
00000280: d812 cd3d dace ba3d 6535 eebe ae06 1e3e
00000290: b12f 66be b7a4 b4bd a711 b03d dd24 5ebd
000002a0: 654f 9abb 021a acbd 0b38 66be 6b2e 3bbe
000002b0: 44ec 933e 09e2 5d3d 51d4 ecbd 16a1 c0bd
000002c0: 0e1a 5ebe 71f2 133e 3597 613e 6b00 8dbd
000002d0: adf1 24be 0834 fd3d 7e98 b6bd 152c 5f3d
000002e0: 2958 05bd c798 5d3e 9253 3d3d 7f32 883a
000002f0: 1bb9 65bd bd3c bfbc e725 383e f841 a0bd
00000300: d1c6 803e 24df 23bc 480f 40be 65f7 26be
00000310: 2288 39be 5fd1 46be 5489 233e a6a3 66bd
00000320: 3c69 36be 45c8 ef3d 7cea 5a3e a91c cd3d
00000330: 0ef5 db3d d286 8d3d 7252 87bd 781f 40bd
00000340: 15f0 893d e01c f43d a129 5dbe 0ada 3cbe
00000350: ee8d d73d e9c1 3b3d a805 473e f3d7 38be
00000360: ef3a 373e e4b8 82bd 2a91 183e e640 44be
00000370: ef94 00bf 9f0e 6a3e 3b04 a13d 0276 d7be
00000380: 7a02 cd3e fea8 b43e 2b17 83bc fea4 2dbc
00000390: 06e4 853e 437c abbe f0f7 913c 2012 743d
000003a0: ffb4 9fbd bfd0 063e e706 b43e 9d6f 0dbf
000003b0: 8043 163f fa7f 14bd 7ae3 bc3d fae8 02be
000003c0: bcf1 0dbd ddf3 323e 7ab4 c43e 76ae 49bd
000003d0: c68f 49be 7c09 5a3e fdf2 b9bd 8b31 85be
000003e0: 1186 913e 8dd2 833e 663e 9b3d 90a6 103d
000003f0: e3cb 79be 2d9d c8bd 104f e9bc a6e9 8d3d

bias f4 [20]
0.29870602 -0.0021106126 -0.06285787 0.25743365 -0.16427973 0.025920339 -0.0496154 -0.09956252
-0.13292041 -0.19266638 -0.20578168 0.14889424 0.061875336 0.08247087 -0.09152714 -0.13854519
-0.014005974 -0.17822409 0.032116435 -0.020757547
00000000: ffef 983e 3452 0abb a0bb 80bd 58ce 833e
00000010: f238 28be e456 d43c 8539 4bbd 6fe7 cbbd
00000020: 4a1c 08be 564a 45be 6fb8 52be bb77 183e
00000030: fe70 7d3d 7de6 a83d 9572 bbbd cade 0dbe
00000040: 5079 65bc 6080 36be 868c 033d bb0b aabc

weight f4 [20, 20]
-0.13163753 -0.47277954 -0.0010630178 -0.18859231 -0.26316625 -0.53934515 -0.19524918 -0.45497426
-0.12256889 0.089331135 -0.22098795 -0.23105982 0.10349464 -0.19726744 0.10263596 -0.11918732
-0.77362245 -0.09299117 0.26183996 0.23708086 -0.20684819 0.28279594 0.066350855 -0.0144397495
0.086706564 0.07968991 0.32061002 0.1183627 0.08204726 0.17276113 -0.13717641 -0.43804064
0.085024476 0.04147858 -0.17222859 0.14276864 -0.2764125 0.10699452 -0.2259343 -0.10592018
0.41358334 -0.29748905 -0.37942675 -0.050368022 -0.24621218 0.13204 0.05250292 -0.50820166
0.2844664 -0.032224182 -0.21059601 0.05280155 -0.05282241 0.01780535 0.11219615 0.08517394
-0.06355049 0.07526168 -0.0050680526 0.14679736 -0.01440362 0.023822818 -0.26539746 0.25626746
-0.072456546 0.016340483 0.3359642 0.34698898 -0.13018009 0.3014431 0.014750512 0.15351826
0.30786753 0.21782483 0.090520136 -0.021728517 -0.17862254 -0.13624524 -0.15468061 0.024606494
-0.6593891 0.05844603 -0.058973104 0.020983925 0.12318093 -0.04263305 0.02245919 0.3684036
-0.37119028 -0.09561019 0.23570035 0.18664227 0.27140248 0.10864209 -0.030255528 -0.14623556
0.082807064 0.20566618 -0.0029870726 -0.2289995 0.16456898 -0.36098006 -0.37125704 -0.22053614
-0.42597902 -0.087029755 -0.13945979 -0.61949813 0.27458942 0.072770454 0.14635284 -0.036824208
-0.546077 -0.30801925 0.014510916 0.025943434 0.108818695 0.22071266 0.058671337 -0.18256663
0.1441166 -0.47293487 -0.1827358 -0.25666168 -0.24762812 -0.21579118 -0.22568075 -0.18030383
0.23042615 -0.029658856 0.10797378 -0.3030405 -0.18410745 -0.0971471 0.0086394325 0.17280088
-0.4255602 0.21224764 0.14568569 -0.117374115 0.329992 -0.19574814 -0.08690656 -0.21954986
0.115939274 0.001335646 0.22283077 0.22624181 0.054606255 -0.13568851 -0.14940912 0.34506223
-0.12244572 -0.10114912 0.0006191867 -0.03601577 0.11555771 0.14905477 -0.015614575 -0.17982845
-0.29646128 -0.040342852 0.08935642 -0.06945195 -0.07593691 -0.002181424 0.11770996 -0.34766623
-0.1139514 -0.033315837 -0.02384318 -0.78873605 0.2797773 0.11337893 0.13078979 0.0980202
-0.20757675 0.27677402 0.21038479 -0.008137686 0.32828084 -0.045102146 -0.2795215 -0.039145883
-0.13498911 0.312613 -0.25448734 0.10368292 0.032008402 0.109169826 0.43213445 0.6541638
-0.1602405 -0.29911008 0.07859421 -0.07519503 0.38715723 -0.06804944 -0.006730284 -0.12232131
0.15665445 -0.21271454 -0.19428569 -0.15736182 -0.24586819 -0.37502995 -0.23578225 0.00060541887
0.34202838 -0.20818993 0.06570897 -0.060252927 -0.3413481 -0.32029018 -0.24349234 -0.12346771
-0.28610957 0.010280819 0.09157723 0.15720923 0.21935202 -0.15106462 -0.006983352 -0.2874106
-0.2572687 -0.20511737 -0.42039698 -0.023794124 0.21872276 0.08337036 0.16732445 -0.18454073
-0.11040563 -0.07954225 0.098996066 0.14074619 -0.3144411 -0.030308561 -0.14200589 -0.069311015
-0.15847 -0.08068884 -0.40745384 -0.043952674 0.024338331 0.13699454 0.14210404 -0.24237828
-0.20061603 -0.08616053 0.26198393 -0.1325256 0.031577114 0.11506147 -0.0019045706 0.067262836
00000000: fdcb 06be 2910 f2be f554 8bba 581e 41be
00000010: babd 86be 8612 0abf 67ef 47be 63f2 e8be
00000020: 6605 fbbd 3ef3 b63d aa4a 62be f29a 6cbe
00000030: fff4 d33d 7a00 4abe cd32 d23d 7b18 f4bd
00000040: 1f0c 46bf 2872 bebd e30f 863e 53c5 723e
00000050: 03d0 53be a1ca 903e f5e2 873d b394 6cbc
00000060: 3693 b13d 7734 a33d ff26 a43e 2568 f23d
00000070: 6508 a83d 4be8 303e f977 0cbe dd46 e0be
00000080: 5021 ae3d 72e5 293d b15c 30be f131 123e
00000090: f085 8dbe f11f db3d 525b 67be aeec d8bd
000000a0: 32c1 d33e 7c50 98be 3944 c2be b34e 4ebd
000000b0: 0c1f 7cbe 7e35 073e 4d0d 573d 8119 02bf
000000c0: 94a5 913e 81fd 03bd 7ba6 57be 7046 583d
000000d0: 505c 58bd 86dc 913c 18c7 e53d ad6f ae3d
000000e0: c226 82bd cc22 9a3d e811 a6bb 0c52 163e
000000f0: 29fd 6bbc 1228 c33c 2de2 87be 7d35 833e
00000100: 1964 94bd 7adc 853c 8003 ac3e 8aa8 b13e
00000110: ee4d 05be c056 9a3e 22ac 713c e433 1d3e
00000120: d0a0 9d3e 790d 5f3e 9f62 b93d 0100 b2bc
00000130: d4e8 36be df83 0bbe 9864 1ebe 8f93 c93c
00000140: b9cd 28bf 1b65 6f3d c88d 71bd 7be6 ab3c
00000150: 4946 fc3d fe9f 2ebd 56fc b73c 669f bc3e
00000160: a70c bebe 46cf c3bd 6f5b 713e 271f 3f3e
00000170: 44f5 8a3e be7f de3d 71da f7bc c6be 15be
00000180: c096 a93d 289a 523e c3c2 43bb d87e 6abe
00000190: c584 283e 61d2 b8be 6715 bebe 3ad4 61be
000001a0: ec19 dabe a83c b2bd 8cce 0ebe 6e97 1ebf
000001b0: fc96 8c3e ad08 953d 85dd 153e fbd4 16bd
000001c0: b4cb 0bbf b3b4 9dbe 31bf 6d3c 5387 d43c
000001d0: 56dc de3d 8002 623e 5b51 703d bff2 3abe
000001e0: 4d93 133e 8524 f2be 181f 3bbe 2969 83be
000001f0: 3a92 7dbe 5df8 5cbe db18 67be 91a1 38be
00000200: d5f4 6b3e 21f7 f2bc 5b21 dd3d 2028 9bbe
00000210: aa86 3cbe 0ff5 c6bd 688c 0d3c b7f2 303e
00000220: 07e3 d9be 7257 593e a12e 153e d761 f0bd
00000230: b6f4 a83e 3372 48be 11fc b1bd aed1 60be
00000240: 9271 ed3d d810 af3a c02d 643e efab 673e
00000250: cfaa 5f3d eef1 0abe b4fe 18be ffab b03e
00000260: d2c4 fabd 4527 cfbd eb50 223a 4685 13bd
00000270: 85a9 ec3d d0a1 183e 46d4 7fbc f324 38be
00000280: c6c9 97be 8c3e 25bd 8000 b73d d33c 8ebd
00000290: d084 9bbd 39f6 0ebb eb11 f13d 4f01 b2be
000002a0: 5a5f e9bd 3076 08bd c652 c3bc 9bea 49bf
000002b0: f83e 8f3e 3633 e83d c2ed 053e d1be c83d
000002c0: 008f 54be 53b5 8d3e 1c6f 573e ee53 05bc
000002d0: 6d14 a83e 07bd 38bd 711d 8fbe 6f57 20bd
000002e0: 963a 0abe d00e a03e 2a4c 82be b657 d43d
000002f0: 3e1b 033d 6e94 df3d ba40 dd3e 4777 273f
00000300: 1616 24be f524 99be 00f6 a03d daff 99bd
00000310: 7939 c63e 815d 8bbd b789 dcbb 9883 fabd
00000320: 066a 203e d7d1 59be d4f2 46be 7523 21be
00000330: dfc4 7bbe ed03 c0be e770 71be f9b4 1e3a
00000340: 581e af3e be2f 55be 6d92 863d c6cb 76bd
00000350: 2ec5 aebe 13fd a3be 0e56 79be a4dc fcbd
00000360: f47c 92be e170 283c d88c bb3d 75fb 203e
00000370: d19d 603e afb0 1abe 9ad4 e4bb 7b27 93be
00000380: b9b8 83be 4a0a 52be 463e d7be e5eb c2bc
00000390: dcf8 5f3e 14be aa3d 1a57 2b3e 3ff8 3cbe
000003a0: 591c e2bd 0ce7 a2bd 73be ca3d c51f 103e
000003b0: 6dfe a0be a949 f8bc fe69 11be eff2 8dbd
000003c0: f645 22be 3140 a5bd ca9d d0be b807 34bd
000003d0: 2e61 c73c 4c48 0c3e b983 113e 0332 78be
000003e0: 4a6e 4dbe ef74 b0bd c222 863e cab4 07be
000003f0: 0157 013d 59a5 eb3d c9a2 f9ba 19c1 893d

bias f4 [20]
-0.15612471 0.10938594 0.1385222 0.24656653 -0.029611042 -0.43662634 0.1411977 0.23889111
0.05071376 -0.21860208 0.023878997 -0.17270412 -0.20561065 -0.15860978 -0.08585823 -0.0012776718
-0.26918152 0.29117897 0.08735655 0.16535382
00000000: 28df 1fbe bc05 e03d c3d8 0d3e f07b 7c3e
00000010: db92 f2bc 7d8d dfbe 2196 103e df9f 743e
00000020: 3bb9 4f3d 39d9 5fbe e39d c33c 59d9 30be
00000030: 998b 52be 9a6a 22be 71d6 afbd 8d77 a7ba
00000040: 29d2 89be 6915 953e fee7 b23d 8352 293e

weight_ih_l0 f4 [60, 6]
0.08795069 -0.31076378 -0.15901753 -0.00554021 -0.0059809303 0.05766089 0.012127424 0.59367913
-0.10890182 0.23440638 -0.12275346 -0.053983983 0.25574243 -0.29861826 -0.18670696 0.007827881
-0.072144546 -0.07568682 -0.2619934 -0.28064707 -0.046696957 0.2357967 0.17584005 0.04929462
0.49890196 -0.20736724 0.17198205 -0.06670553 0.050969444 0.3526234 -0.28550297 0.45467326
0.10608074 0.146654 0.2122992 0.05688694 0.2155711 -0.12275195 -0.21622118 -0.26793876
0.2999178 0.15287751 -0.15965757 -0.26013517 -0.28073657 -0.17884237 -0.13537234 0.07594504
-0.009593822 0.29354936 0.22422503 -0.050898265 0.38148084 0.02396821 -0.14768568 -0.3472717
-0.14015733 0.349014 0.10943786 0.12600984 -0.04722129 0.0818639 -0.13120724 0.020674117
-0.13087685 -0.26102367 -0.046552222 0.40330052 0.45933488 0.56971616 0.21519218 0.45930454
-0.012756793 0.07653417 0.16006869 0.20972483 -0.00213498 -0.055746563 -0.120982096 -0.39335394
0.04135108 0.44235817 0.049578752 0.38057643 -0.3335795 -0.1769414 0.3314616 0.1100483
-0.19579959 -0.19910334 0.07405076 0.044518795 0.23335929 0.3022284 0.3542139 0.37452123
-0.32468453 0.21403219 0.11136892 -0.092446685 0.19226083 -0.13338342 -0.2481602 0.3305165
0.11934855 -0.29134366 -0.108358055 0.13183877 -0.16862047 -0.10548143 0.15737861 0.037497003
-0.04350977 0.049586218 0.6138355 0.17608161 0.46341237 0.4110835 0.42824188 0.50252455
-0.60962826 -0.5302571 -0.19726253 0.0061286027 -0.18480419 0.05333715 -0.22694011 -0.7427212
-0.20484468 -0.091495946 0.0007014111 -0.12390141 -0.15173848 -0.40594357 -0.30707356 -0.11278161
-0.1724649 -0.4790161 -0.4349772 -0.11678418 -0.13719659 -0.17385238 -0.19546759 -0.26398858
-0.11083901 -0.12544945 -0.21264876 -0.1366388 0.04255389 0.13451351 -0.14838904 0.08507558
0.14767192 0.17755094 0.042965293 -0.15946676 -0.020935327 -0.7119255 0.07700468 -0.43946275
-0.26189092 -0.28795686 0.84685826 0.21699505 -0.23410591 0.01076377 0.061923314 0.12650834
-0.14665732 -0.36159357 -0.13144563 -0.06309036 -0.0844115 -0.24440376 0.21070209 -0.24619126
0.13443185 0.24526288 -0.15883985 -0.15086512 -0.025210401 -0.32173195 -0.07801686 0.27759573
-0.21904437 -0.2711906 0.37077767 0.25109217 -0.13247453 0.03739523 0.104944155 -0.10705616
0.09390856 -0.116428286 0.22165743 0.3421517 0.09212432 0.13789381 -0.6006353 -0.028621187
-0.010685984 -0.17200503 0.20754488 -0.024878675 -0.7052869 -0.72178787 -0.24978246 -0.009312099
-0.09123829 -0.18233371 -0.04033198 0.1643424 0.3959476 0.20467958 0.26798016 0.057471283
-0.3446704 0.06556669 -0.106179036 -0.36862987 -0.27535942 -0.348569 -0.024655927 -0.060848445
0.063523985 -0.24077886 -0.27709922 -0.20983008 -0.7561391 -0.1440921 -0.16659902 -0.032793444
-0.047523912 0.23019303 -0.2488691 -0.106862776 -0.017100187 -0.11231293 0.04731083 -0.14383951
0.2128195 -0.22013725 -0.15602957 0.2144883 -0.076669894 0.009851687 0.051320337 -0.06850226
0.12511028 -0.28704512 -0.07942061 0.15002784 -0.08104722 0.29682004 0.11342922 -0.28223297
00000000: 7e1f b43d 6e1c 9fbe 7ed5 22be a68a b5bb
00000010: aefb c3bb d32d 6c3d 1ab2 463c 5bfb 173f
00000020: eb07 dfbd 3a08 703e 2b66 fbbd 4f1e 5dbd
00000030: acf0 823e 7ee4 98be 1c30 3fbe 8340 003c
00000040: 85c0 93bd b101 9bbd 0024 86be f9b0 8fbe
00000050: 4f45 3fbd b174 713e 6a0f 343e 28e9 493d
00000060: 1470 ff3e 1458 54be 101c 303e e99c 88bd
00000070: 56c5 503d 0e8b b43e 722d 92be efca e83e
00000080: dc40 d93d 772c 163e f664 593e 4802 693d
00000090: acbe 5c3e 6065 fbbd 1669 5dbe 452f 89be
000000a0: d38e 993e ec8b 1c3e 467d 23be 7030 85be
000000b0: b4bc 8fbe 7422 37be 0c9f 0abe 1389 9b3d
000000c0: 682f 1dbc 1a4c 963e 3f9b 653e b37a 50bd
000000d0: 7551 c33e fb58 c43c ea3a 17be 99cd b1be
000000e0: 6785 0fbe f7b1 b23e f520 e03d b908 013e
000000f0: 1d6b 41bd 43a8 a73d 315b 06be c45c a93c
00000100: 9504 06be e5a4 85be 8bad 3ebd 687d ce3e
00000110: f12d eb3e ebd8 113f 575b 5c3e f729 eb3e
00000120: de01 51bc f2bd 9c3d 0ce9 233e 1bc2 563e
00000130: 05eb 0bbb 8256 64bd 76c5 f7bd b065 c9be
00000140: c05f 293d c57c e23e 1713 4b3d eada c23e
00000150: efca aabe 2030 35be 56b5 a93e 0161 e13d
00000160: b07f 48be bfe1 4bbe eda7 973d 5759 363d
00000170: bdf5 6e3e aebd 9a3e 865b b53e 3fc1 bf3e
00000180: 0d3d a6be 412b 5b3e 6315 e43d b054 bdbd
00000190: 06e0 443e aa95 08be b51d 7ebe 7539 a93e
000001a0: 036d f43d ff2a 95be d4ea ddbd be00 073e
000001b0: d8aa 2cbe a606 d8bd dc27 213e 7596 193d
000001c0: 4d37 32bd eb1a 4b3d 5324 1d3f bd4e 343e
000001d0: 6344 ed3e 8979 d23e 8542 db3e 73a5 003f
000001e0: 9910 1cbf eebe 07bf 30ff 49be 72d2 c83b
000001f0: 4f3d 3dbe 0e78 5a3d fd62 68be fa22 3ebf
00000200: cec2 51be 3a62 bbbd e7de 373a 06c0 fdbd
00000210: 5561 1bbe d6d7 cfbe bf38 9dbe 0bfa e6bd
00000220: a49a 30be 9941 f5be 55b5 debe 8b2c efbd
00000230: 437d 0cbe 5c06 32be a828 48be 8329 87be
00000240: 90ff e2bd d275 00be 99c0 59be 0beb 0bbe
00000250: fd4c 2e3d e9bd 093e 4cf3 17be 1b3c ae3d
00000260: 4f37 173e eacf 353e 60fc 2f3d 414b 23be
00000270: 9080 abbc c040 36bf a1b4 9d3d 4301 e1be
00000280: 9116 86be 156f 93be b4cb 583f f333 5e3e
00000290: 76b9 6fbe 865a 303c 4da3 7d3d 678b 013e
000002a0: 562d 16be cb22 b9be af99 06be 8535 81bd
000002b0: f0df acbd fb44 7abe 4ac2 573e 9019 7cbe
000002c0: 81a8 093e 3126 7b3e eaa6 22be 637c 1abe
000002d0: 0b86 cebc 0dba a4be 4ec7 9fbd 0721 8e3e
000002e0: 2b4d 60be 7fd9 8abe 92d6 bd3e 278f 803e
000002f0: 67a7 07be be2b 193d f6ec d63d 4340 dbbd
00000300: 2253 c03d f471 eebd 2afa 623e 822e af3e
00000310: adab bc3d 0934 0d3e 3cc3 19bf fb76 eabc
00000320: 4414 2fbc 1622 30be a586 543e 5dce cbbc
00000330: af8d 34bf 17c7 38bf f9c6 7fbe c691 18bc
00000340: 24db babd b0b5 3abe 2533 25bd 6049 283e
00000350: a5b9 ca3e 8697 513e b234 893e 0267 6b3d
00000360: a378 b0be d447 863d 6574 d9bd 0ebd bcbe
00000370: e9fb 8cbe a377 b2be 3afb c9bc 383c 79bd
00000380: dd18 823d bc8e 76be f3df 8dbe b2dd 56be
00000390: 5592 41bf e18c 13be ef98 2abe 6b52 06bd
000003a0: 6fa8 42bd b9b7 6b3e 8bd7 7ebe dfda dabd
000003b0: b115 8cbc 5204 e6bd 00c9 413d aa4a 13be
000003c0: 5bed 593e a96b 61be 37c6 1fbe d2a2 5b3e
000003d0: 1b05 9dbd f868 213c 4635 523d ea4a 8cbd
000003e0: e91c 003e 94f7 92be 46a7 a2bd e6a0 193e
000003f0: 16fc a5bd ccf8 973e 944d e83d d780 90be

weight_hh_l0 f4 [60, 20]
-0.28676862 -0.08260033 0.31188467 0.13811226 0.06591594 0.03837653 0.19475076 0.07606576
-0.05417453 0.107831255 0.18127902 0.6053368 0.21097456 -0.17147955 -0.1396072 0.15851669
-0.27504647 -0.24712951 0.2840027 -0.26535854 0.2779044 -0.19672455 -0.5525158 0.0016953415
0.10564063 0.3474469 -0.2680041 0.21445857 0.10670833 0.037875935 -0.082261615 0.07582232
-0.07124349 0.2954123 0.27065468 -0.3332733 0.3268573 0.05807534 0.00802528 -0.38725433
0.20677705 -0.22516188 -0.43057564 -0.09433132 -0.032888453 -0.047302924 -0.15123536 0.5145298
-0.07230187 -0.15941052 -0.18342207 -0.20528257 0.12390341 -0.0065956553 0.07665316 -0.03647059
0.46521464 0.13382213 -0.18492953 -0.16174829 -0.33502045 0.087006435 0.2753553 0.24017744
0.03249082 -0.13808621 0.15882352 0.003367571 0.20336117 0.052135237 0.3395819 0.000463058
0.14593528 -0.2461191 0.072898045 -0.0422571 -0.16521128 -0.49594718 0.47069678 -0.068857
-0.20470954 -0.26285037 0.48980835 0.10768752 -0.028909987 -0.29974666 -0.05050539 -0.22088988
0.2589616 -0.009551458 0.4085589 -0.3594748 -0.27158275 -0.10077892 -0.38077736 -0.5000655
-0.09373147 -0.7386259 0.44356382 -0.1979878 -0.34167328 -0.23843315 -0.17733072 -0.037721884
0.14680499 -0.21881488 0.36728632 -0.05708355 0.036775183 -0.047425784 0.16670072 0.14906332
-0.2173698 -0.14434414 0.048618164 -0.32851437 0.08003093 -0.4584027 0.1658106 0.024846105
0.07434893 -0.08776514 0.21543118 0.14997268 0.020187808 0.34592804 -0.5279812 -0.015369762
0.15896313 -0.19555548 -0.061620384 0.26010677 -0.16676684 0.008819333 -0.04550577 -0.0037129377
-0.04909621 0.33798087 -0.035068084 -0.09748392 -0.17693576 0.397603 0.756546 0.3211428
-0.2049064 0.22028247 0.013548051 -0.121530585 -0.21527685 0.23494864 0.37144732 0.4643971
0.13822578 -0.45817053 0.2759052 0.35893336 -0.088096775 0.37054676 -0.050926916 -0.02792536
-0.28192714 -0.089382775 0.04267238 -0.11394871 -0.0017105995 -0.3952878 0.13972718 -0.13503078
-0.05603588 -0.3347096 0.20772782 -0.01834744 -0.30778384 -0.056451157 -0.3627617 -0.017584255
-0.15740891 -0.12453884 0.38713977 -0.22510846 0.110937685 -0.18656099 -0.06429912 0.13538302
-0.1132705 -0.04674655 0.31968555 0.15823951 -0.11405468 0.08708609 -0.09335635 0.15919805
0.1181728 0.08438306 -0.27042913 0.016896596 0.21858133 -0.4486326 -0.10582415 -0.13298394
-0.1993579 -0.060835723 0.03382727 0.69823986 -0.06852737 0.58767676 -0.4687345 0.18250316
-0.07689419 0.45975205 0.41256028 0.36375314 0.3735081 -0.028242566 0.10201736 0.3890854
-0.026035963 0.06389722 -0.47035393 -0.50626016 -0.25060937 -0.33608863 -0.053697653 -0.29838875
0.38778743 -0.06933046 0.4688722 -0.013579536 0.47567552 -0.20379569 -0.031248407 0.1826698
-0.15556556 0.15340021 -0.17318563 -0.47903243 -0.3461464 -0.38180196 0.5490526 0.053258266
-0.23991244 0.09716707 -0.22922526 0.042691182 0.15166809 -0.2600549 0.2704291 0.029578486
-0.050243914 -0.15777464 0.025668368 -0.2140994 0.11066523 -0.09239848 0.043727923 -0.24843287
00000000: 56d3 92be 5d2a a9bd 59af 9f3e 4d6d 0d3e
00000010: f0fe 863d b530 1d3d be6c 473e 5dc8 9b3d
00000020: 1de6 5dbd a2d6 dc3d 35a1 393e 5af7 1a3f
00000030: b709 583e 5698 2fbe 31f5 0ebe 3352 223e
00000040: e4d2 8cbe 850f 7dbe cd68 913e 13dd 87be
00000050: 7c49 8e3e 2972 49be ad71 0dbf 3936 de3a
00000060: 1d5a d83d 8fe4 b13e d537 89be 079b 5b3e
00000070: e689 da3d cc23 1b3d c778 a8bd bc48 9b3d
00000080: 1be8 91bd 4840 973e 4093 8a3e cca2 aabe
00000090: d759 a73e 68e0 6d3d 777c 033c 3346 c6be
000000a0: 5dbd 533e d690 66be 6974 dcbe c730 c1bd
000000b0: 0bb6 06bd b6c0 41bd 71dd 1abe 3ab8 033f
000000c0: 0113 94bd 833c 23be ffd2 3bbe 9835 52be
000000d0: 12c1 fd3d 5e20 d8bb 55fc 9c3d 2f62 15bd
000000e0: 9d30 ee3e ab08 093e 2b5e 3dbe 58a1 25be
000000f0: cd87 abbe 6e30 b23d 5ffb 8c3e 13f1 753e
00000100: 1815 053d 7966 0dbe a2a2 223e 77b2 5c3b
00000110: e93d 503e c28b 553d aedd ad3e 98c6 f239
00000120: 0f70 153e a506 7cbe 924b 953d c815 2dbd
00000130: 252d 29be caec fdbe 2bff f03e e604 8dbd
00000140: 619f 51be 5394 86be 29c8 fa3e 468b dc3d
00000150: a3d4 ecbc 6578 99be bdde 4ebd f530 62be
00000160: 9d96 843e b87d 1cbc a22e d13e 150d b8be
00000170: e50c 8bbe 2e65 cebd 40f5 c2be 4b04 00bf
00000180: 49f6 bfbd 9616 3dbf cc1a e33e 50bd 4abe
00000190: cdef aebe d227 74be 2f96 35be 4382 1abd
000001a0: 0c54 163e 0211 60be f40c bc3e 71d0 69bd
000001b0: 93a1 163d 8a41 42bd 98b3 2a3e 0ea4 183e
000001c0: 3096 5ebe f3ce 13be d723 473d 0933 a8be
000001d0: 42e7 a33d c2b3 eabe 41ca 293e 0f8a cb3c
000001e0: 4044 983d 36be b3bd fe99 5c3e 7092 193e
000001f0: e760 a53c 7b1d b13e c729 07bf 74d1 7bbc
00000200: 3bc7 223e b23f 48be a865 7cbd b72c 853e
00000210: edc4 2abe f77e 103c 4264 3abd c254 73bb
00000220: 1c19 49bd d40b ad3e 8da3 0fbd a6a5 c7bd
00000230: a62e 35be 9f92 cb3e 00ad 413f d46c a43e
00000240: fcd2 51be ba91 613e a5f8 5d3c 07e5 f8bd
00000250: 8971 5cbe 6096 703e 582e be3e 75c5 ed3e
00000260: 0f8b 0d3e 5495 eabe 7243 8d3e 1dc6 b73e
00000270: 156c b4bd 4eb8 bd3e be98 50bd b9c3 e4bc
00000280: c158 90be 510e b7bd 3cc9 2e3d f15d e9bd
00000290: 3236 e0ba 2a63 cabe a414 0f3e 8245 0abe
000002a0: e185 65bd 0f5f abbe 9ab6 543e 5f4d 96bc
000002b0: d895 9dbe 5439 67bd e7bb b9be db0c 90bc
000002c0: cd2f 21be 380e ffbd 2f37 c63e d582 66be
000002d0: 4c33 e33d d809 3fbe 42af 83bd d9a1 0a3e
000002e0: 5dfa e7bd 4f79 3fbd d3ad a33e 8a09 223e
000002f0: 8095 e9bd 315a b23d 9d31 bfbd d004 233e
00000300: 9504 f23d 07d1 ac3d b075 8abe bb6a 8a3c
00000310: c9d3 5f3e 2cb3 e5be 55ba d8bd f12c 08be
00000320: 7a24 4cbe e12e 79bd 778e 0a3d d9bf 323f
00000330: 1458 8cbd fc71 163f f8fd efbe 1ce2 3a3e
00000340: b37a 9dbd 9f64 eb3e 1a3b d33e da3d ba3e
00000350: 743c bf3e f45c e7bc 7aee d03d 3436 c73e
00000360: 5f49 d5bc 8cdc 823d 3bd2 f0be 449a 01bf
00000370: df4f 80be cf13 acbe 12f2 5bbd 69c6 98be
00000380: 138c c63e 21fd 8dbd 0410 f03e b47c 5ebc
00000390: be8b f33e d1af 50be a9fc ffbc cb0d 3b3e
000003a0: 944c 1fbe f214 1d3e 9357 31be bd43 f5be
000003b0: 1a3a b1be 8c7b c3be b68e 0c3f 5725 5a3d
000003c0: 9bab 75be 87ff c63d 07ba 6abe f3dc 2e3d
000003d0: e14e 1b3e ea25 85be af75 8a3e 954e f23c
000003e0: 90cc 4dbd ad8f 21be 7846 d23c e03c 5bbe
000003f0: 74a4 e23d 6a3b bdbd 0d1c 333d 3065 7ebe

bias_ih_l0 f4 [60]
-0.013403107 0.24460183 0.0975345 0.15223856 0.3669064 0.16370183 0.13590881 -0.1904709
0.0191413 0.04678162 0.08581933 0.5276348 0.039192848 0.31347895 -0.28472915 0.4174548
0.048112888 -0.23066583 -0.14104033 0.13582134 -0.18534334 -0.15242155 -0.20533332 -0.28321412
-0.12631978 0.17669035 -0.03070936 0.2559463 0.1445683 -0.17715262 0.035919163 0.18326603
-0.03497065 0.35167864 0.15727675 0.10519063 -0.15179305 -0.28205413 0.23594289 0.07731058
-0.21158837 -0.029825108 0.059705358 -0.029874358 -0.15322174 -0.18949455 -0.18516667 -0.0050697657
0.091799 0.1739956 -0.03244772 0.05232426 -0.17400676 0.009170934 0.10740978 -0.1944669
-0.09540863 -0.0031179038 0.11648208 -0.08986301
00000000: b598 5bbc e778 7a3e 2bc0 c73d 6de4 1b3e
00000010: 28db bb3e 74a1 273e ae2b 0b3e ce0a 43be
00000020: 37ce 9c3c 159e 3f3d 0bc2 af3d 1313 073f
00000030: ae88 203d 5080 a03e 05c8 91be a3bc d53e
00000040: 0512 453d aa33 6cbe e06c 10be c014 0b3e
00000050: a5ca 3dbe 6514 1cbe e642 52be 7101 91be
00000060: f959 01be 51ee 343e 3292 fbbc 650b 833e
00000070: b609 143e 7f67 35be f91f 133d 17aa 3b3e
00000080: 623d 0fbd 390f b43e 280d 213e 2f6e d73d
00000090: a36f 1bbe 6669 90be 039b 713e 0255 9e3d
000000a0: 9faa 58be c953 f4bc 9b8d 743d 12bb f4bc
000000b0: 29e6 1cbe dc0a 42be 559c 3dbe 4720 a6bb
000000c0: 1d01 bc3d e72b 323e e7e7 04bd f751 563d
000000d0: d42e 32be af41 163c a9f9 db3d 5522 47be
000000e0: 9a65 c3bd bf55 4cbb 288e ee3d 190a b8bd

bias_hh_l0 f4 [60]
-0.22709768 -0.09189361 -0.2556606 0.2629916 0.43376815 0.023957387 0.30283242 0.025947638
0.11616044 0.24902818 0.13398656 0.2582086 0.3341329 0.09452351 -0.31086716 0.30989465
-0.10380709 0.09031603 -0.010524786 0.16635627 -0.0072177015 0.07970989 -0.4610062 -0.08745557
-0.20578076 0.16855274 -0.118203446 0.2205172 -0.19898137 -0.07562453 -0.2078536 0.26721704
-0.0780861 0.36024222 -0.102323286 -0.08351035 -0.16652642 -0.25831676 0.2679739 -0.24739924
0.12543616 -0.048128698 -0.008070372 0.062081154 0.16794431 -0.36781654 -0.27106148 0.35044575
-0.14515734 0.02624088 -0.023610413 -0.33951312 -0.08275009 -0.21598585 -0.16947351 -0.34573066
-0.28587767 -0.036624745 -0.028157745 0.08453686
00000000: 4b8c 68be b832 bcbd f2e5 82be d6a6 863e
00000010: dc16 de3e 4842 c43c da0c 9b3e 2490 d43c
00000020: 86e5 ed3d 3e01 7f3e c633 093e eb33 843e
00000030: 7813 ab3e 8b95 c13d fb29 9fbe 83aa 9e3e
00000040: d098 d4bd 9cf7 b83d 2770 2cbc 4c59 2a3e
00000050: 7882 ecbb f03e a33d 0109 ecbe e81b b3bd
00000060: 31b8 52be 1799 2c3e a614 f2bd 43cf 613e
00000070: c6c1 4bbe 09e1 9abd 93d7 54be acd0 883e
00000080: 9beb 9fbd ab71 b83e df8e d1bd 7907 abbd
00000090: e785 2abe 1842 84be e033 893e 3a56 7dbe
000000a0: 5672 003e 9922 45bd 9839 04bc cf48 7e3d
000000b0: 98f9 2b3e 7352 bcbe 92c8 8abe a06d b33e
000000c0: 20a4 14be 1df7 d63c a06a c1bc aad4 adbe
000000d0: e178 a9bd 652b 5dbe 778a 2dbe 9c03 b1be
000000e0: 8f5e 92be d403 16bd 12ab e6bc a921 ad3d

weight f4 [20, 20]
0.41160628 -0.15545532 -0.3776425 -0.47367597 -0.13867107 0.18810843 -0.2065427 -0.15004219
-0.13787426 -0.3905139 -0.3693308 0.15002422 -0.25098625 0.1077256 0.38478035 -0.29457793
0.46953264 -0.16370256 -0.0095513845 0.044900104 -0.029970136 0.18763079 -0.06356919 0.050624344
-0.061328586 -0.18742742 0.20744248 0.15909053 -0.05493615 0.12579271 0.059591155 0.13861157
0.21377832 -0.14371777 0.14274749 -0.12711781 -0.03476944 0.104591936 0.19978902 0.106543906
0.19930191 -0.16424209 0.13400838 -0.21297409 -0.22613667 0.26043406 -0.18501331 -0.12748538
0.17417853 0.4233322 0.03861699 -0.17003255 -0.25532144 -0.12555 0.08711985 -0.08406164
0.046882633 0.5187461 -0.091360085 -0.048411723 0.107118495 -0.24280852 -0.15537201 -0.22726645
0.07371812 0.17099182 0.09401212 0.50343716 -0.14056446 -0.16053014 -0.115218714 0.06071953
0.34859538 0.03594738 0.30173537 0.02764642 0.48740995 -0.0039805844 -0.104824364 -0.24416947
-0.42205942 -0.123361446 0.14460294 0.06289343 -0.124269955 0.05996501 0.36001754 -0.23265187
0.042725403 0.14063236 0.5215098 -0.09313883 -0.23485126 0.35450196 -0.4904432 -0.17290603
-0.039091635 -0.3646078 0.23691078 -0.14955069 -0.19005303 -0.3114132 -0.042619687 -0.2997876
0.20215772 -0.119236544 -0.24562237 0.28636667 0.3305687 0.067733966 -0.26922688 -0.12433423
0.06721544 -0.07021652 0.010735841 -0.09203489 -0.19827905 0.35706526 -0.11029483 -0.090742126
-0.24064311 -0.060848545 -0.12645178 -0.065175526 -0.10311483 0.0759373 -0.10907501 0.15007018
-0.03421926 0.047438417 -0.124592334 -0.10730576 0.08099167 -0.03229085 -0.014994544 0.26361367
0.010223083 -0.049026202 0.008384664 0.17991692 -0.024799054 -0.069169685 -0.02891586 0.010513725
-0.19411732 0.043442257 -0.0065402216 0.09119432 0.028307026 0.14756027 0.007924898 -0.18225165
-0.09545243 0.004194257 -0.0847739 0.05974936 0.16031799 0.095039204 0.18639418 0.20039572
-0.08781009 -0.13229413 0.34099147 -0.14194442 0.0317644 0.032405484 -0.35894963 -0.010548214
0.09696639 0.35054025 -0.2721934 0.029167704 -0.20538023 -0.068608 0.16265953 -0.098560594
-0.10165768 0.12094637 -0.07743408 -0.17036065 0.1428948 -0.3305298 0.12057818 -0.31162614
-0.010404395 0.1792431 0.5421476 -0.17643252 0.07466027 -0.4569918 0.21265145 0.11383124
-0.07206615 0.5342586 -0.26108554 0.1876123 0.20061874 -0.9399055 0.23273109 0.054212272
0.43492267 -0.14932129 -0.21970233 -0.4443077 0.054155122 -0.11959851 0.3291957 -0.0661337
0.19135168 -0.35476747 -0.20311232 0.047127265 0.21558326 -0.11657458 -0.0027410672 0.12192196
0.5875698 -0.65560335 0.17380804 0.15510148 0.16636026 0.3344987 0.071203984 0.17953438
-0.5728716 0.55495334 -0.103399806 0.23395216 -0.24900967 0.34505033 -0.021886336 -0.53108263
-0.04964356 0.3811498 0.17651668 -0.08588558 -0.0010286291 -0.14038761 -0.19141327 0.0041915053
0.33079758 -0.21400018 -0.14020362 -0.15829115 0.39442915 -0.29242748 0.35255304 -0.19760157
0.19112818 -0.3681879 -0.11636718 0.33794475 -0.10377195 0.4069096 -0.29350194 -0.040270858
00000000: 0fbe d23e ae2f 1fbe 5c5a c1be a885 f2be
00000010: caff 0dbe 7f9f 403e ee7f 53be a9a4 19be
00000020: e92e 0dbe 70f1 c7be ed18 bdbe f39f 193e
00000030: 4581 80be 3d9f dc3d ee01 c53e ebd2 96be
00000040: 9566 f03e a5a1 27be 697d 1cbc 2ce9 373d
00000050: ee83 f5bc 4922 403e 9030 82bd 795b 4f3d
00000060: af33 7bbd f9ec 3fbe cd6b 543e a1e8 223e
00000070: ba04 61bd cecf 003e db15 743d 31f0 0d3e
00000080: b4e8 5a3e c02a 13be 662c 123e 2c2b 02be
00000090: 666a 0ebd 4c34 d63d 7e95 4c3e b133 da3d
000000a0: cd15 4c3e 142f 28be 7e39 093e e115 5abe
000000b0: 5f90 67be 9d57 853e 2174 3dbe 878b 02be
000000c0: db5b 323e 00bf d83e d92c 1e3d 031d 2ebe
000000d0: 7eb9 82be 2e90 00be e46b b23d 8228 acbd
000000e0: 0108 403d 8bcc 043f ff1a bbbd 5f4b 46bd
000000f0: f160 db3d cca2 78be d719 1fbe 89b8 68be
00000100: 87f9 963d 7b18 2f3e 6d89 c03d 42e1 003f
00000110: 21f0 0fbe 0362 24be caf7 ebbd 0bb5 783d
00000120: 187b b23e 8f3d 133d 0f7d 9a3e bf7a e23c
00000130: cc8d f93e 906f 82bb 28ae d6bd 9007 7abe
00000140: 2c18 d8be eda4 fcbd cb12 143e 45ce 803d
00000150: 3f81 febd df9d 753d 3854 b83e 4b3c 6ebe
00000160: d500 2f3d ee01 103e ab81 053f 92bf bebd
00000170: d97c 70be 4881 b53e 5f1b fbbe 470e 31be
00000180: 8d1e 20bd e0ad babe bd98 723e d123 19be
00000190: 439d 42be 8d71 9fbe fb91 2ebd c37d 99be
000001a0: 6f02 4f3e 4a32 f4bd 6e84 7bbe a79e 923e
000001b0: 4d40 a93e 1bb8 8a3d 1bd8 89be f2a2 febd
000001c0: 40a8 893d aecd 8fbd 61e5 2f3c ca7c bcbd
000001d0: aa09 4bbe 42d1 b63e 41e2 e1bd 02d7 b9bd
000001e0: 266b 76be 533c 79bd 937c 01be bf7a 85bd
000001f0: de2d d3bd 0485 9b3d b862 dfbd ffab 193e
00000200: 7f29 0cbd c94e 423d 442a ffbd 1fc3 dbbd
00000210: f6de a53d 6943 04bd adab 75bc 5ff8 863e
00000220: b87e 273c b3cf 48bd d45f 093c 243c 383e
00000230: 6327 cbbc d6a8 8dbd f4e0 ecbc c241 2c3c
00000240: b1c6 46be 82f0 313d 5b4f d6bb 16c4 ba3d
00000250: 23e4 e73c 0a1a 173e 6ed7 013c 2da0 3abe
00000260: 907c c3bd fa6f 893b f09d adbd bfbb 743d
00000270: 662a 243e eaa3 c23d 1ede 3e3e 8934 4d3e
00000280: c7d5 b3bd 1d78 07be 6f96 ae3e e159 11be
00000290: 631b 023d 9dbb 043d 3fc8 b7be 6bd2 2cbc
000002a0: 5196 c63d 037a b33e ef5c 8bbe 1cf1 ee3c
000002b0: 324f 52be 5a82 8cbd 3890 263e 23da c9bd
000002c0: e731 d0bd bbb2 f73d c295 9ebd 0673 2ebe
000002d0: 0453 123e 343b a9be b1f1 f63d 768d 9fbe
000002e0: 3277 2abc 818b 373e 2fca 0a3f baaa 34be
000002f0: 7ce7 983d d4fa e9be 4dc1 593e 5a20 e93d
00000300: 6b97 93bd 2cc5 083f 01ad 85be 701d 403e
00000310: 006f 4d3e a69d 70bf 0f51 6e3e b00d 5e3d
00000320: 2fae de3e aee7 18be a6f9 60be 4d7c e3be
00000330: c3d1 5d3d 10f0 f4bd 578c a83e 1b71 87bd
00000340: b2f1 433e 15a4 b5be adfc 4fbe 8508 413d
00000350: dcc1 5c3e a7be eebd 7aa3 33bb 38b2 f93d
00000360: f96a 163f 9fd5 27bf bcfa 313e ecd2 1e3e
00000370: 585a 2a3e 6a43 ab3e 65d3 913d dcd7 373e
00000380: b7a7 12bf 6c11 0e3f 47c3 d3bd 2891 6f3e
00000390: 64fc 7ebe 70aa b03e f94a b3bc 08f5 07bf
000003a0: 0c57 4bbd 1126 c33e cac0 343e c7e4 afbd
000003b0: 11d3 86ba c5c1 0fbe d701 44be e558 893b
000003c0: 4d5e a93e dd22 5bbe 8a91 0fbe 1317 22be
000003d0: 9ef2 c93e 0eb9 95be d581 b43e 1158 4abe
000003e0: 1bb7 433e 2083 bcbe eb51 eebd 1807 ad3e
000003f0: 6386 d4bd 7556 d03e e345 96be 0ef3 24bd
