Sample/Sample 155256/model.pt (torch_old, 25409 bytes, 11 tensors)

weight_ih_l0 f4 [36, 2]
00000000: 5a7d a4be f685 f03e 98b8 34bf 9730 1ec0
00000010: 8bdd 8c3e cb91 89be 78e1 ef3d b73a f23e
00000020: 1bc2 683f 8df5 24be f289 a2bf e6a3 0cbf
00000030: d25d cabe c787 733e 4731 0fbd 4fed ea3e
00000040: 79f9 e83e 8dbd 5b3f 05bf e6be 2bef 4f3d
00000050: f477 083f 4aed 493e 2f60 3d3e cf95 c5be
00000060: 952c 7cbe 3d22 d23d de90 f0bd 868d c4be
00000070: 12ce 1cbe f7cd 4abd 91e6 3c3e ace7 c4be
00000080: ab89 db3d 4ce8 c5bd 1d35 97bf 2fe2 41bf
00000090: 2403 653e 9811 ef3e f5c2 aebe 440b b0be
000000a0: f59c 483d ec3d d83c 2966 f2be 7032 e4bd
000000b0: 7ea7 f33c c142 e6be 9b8a 4e3e 1e26 50bf
000000c0: f217 debe 30fd ab3e 089a a63f b24f a9bd
000000d0: 8500 a43e 6f35 26bf e915 b5be 0ce6 53be
000000e0: 804f ef3e 4749 e8be 4e47 3abe 49fa a03e
000000f0: 10ff 49bf 9607 c83e 65c4 da3e 62bf fdbe
00000100: f0dd f8be 58ab 033e 7ee1 b5be fc8e b0be
00000110: b063 debe 3b52 c3bd 7dce 1abe f8cf 0c3f
-0.32126886 0.46977204 -0.7059417 -2.4717157 0.27512774 -0.26869044 0.117129266 0.4731042
0.9092118 -0.16109295 -1.2698348 -0.5493759 -0.39524704 0.23782264 -0.034959104 0.45884177
0.45502833 0.85836107 -0.4506761 0.050765198 0.53308034 0.19719425 0.18493722 -0.38590857
-0.24626382 0.10260437 -0.11746381 -0.38389224 -0.15312985 -0.04951283 0.18447329 -0.38458002
0.107196175 -0.09663448 -1.1813084 -0.75735754 0.2236448 0.4669311 -0.34133115 -0.34383595
0.04897781 0.026396714 -0.47343567 -0.11142433 0.029742952 -0.44972804 0.20170061 -0.8130816
-0.43377644 0.33591604 1.3015757 -0.08267154 0.32031646 -0.64925283 -0.3536828 -0.20693225
0.4674034 -0.45368406 -0.18191263 0.31440952 -0.7890482 0.39068288 0.42727962 -0.49560076
-0.48606825 0.12858331 -0.355236 -0.34484088 -0.4343543 -0.095371686 -0.15117832 0.55004835

weight_hh_l0 f4 [36, 12]
00000000: e57e aa3f 68e4 893d b090 d13f 8e69 77be
00000010: be94 43be bd04 92be daa1 adbe 3255 303e
00000020: e7e2 5d3f e45e c33e 8419 9cbe 05d3 8dbe
00000030: f8af f83e f792 863f bc37 b3be c8b6 813d
00000040: 60d3 75be 7769 993e 6406 f33e 9f9e 37be
00000050: 8d5d 1dbe 0d23 adbe 5fbc 85bd 059c 303e
00000060: f2c1 fe3e 32bd 67bc 82e2 3cbf 1972 b9bb
00000070: d5b2 fa3c 6291 923e ffca adbd 7b3f 44bf
00000080: 2e22 3abf f0d9 033f 0f01 9d3e 1f49 27be
00000090: af6f d4bc 8cdb 5d3d db37 59be 8228 36bf
000000a0: f360 7fbd 5da9 7fbe c0b9 be3d 7384 87bd
000000b0: 42b5 8a3f 0e73 1a3f 4045 fdbd a779 9ebe
000000c0: 2fdc 06bf c5cc 72bd 228c b2be cfba bc3c
000000d0: 0842 7f3e 10db 3cbf 8aa2 093f 3844 653d
000000e0: 37b1 9bbd bfc1 b8be 7023 c73d 40eb 173f
000000f0: 7384 8f3e 27ee 2bbf 3085 853f a1e1 6dbe
00000100: f552 0d3e a9ee a3bf a969 5b3f f989 32bf
00000110: f33c d73e bf19 1f3e 0fa9 1e3e 07ca 0bbf
00000120: 081f aabd ff77 90be 390f 07bf 1923 203f
00000130: d5a6 50be 3c6e c13e 68c0 9d3e b137 15bd
00000140: 96f7 aabe 38be 50be 349e 1a3d f1a3 413e
00000150: d317 0f3f efef 073e fcda dcbe 5733 f03d
00000160: 6810 81be a523 57be 7e51 c9bd 9ee5 11bf
00000170: 7cda 41bf 0b03 0a3f 09bc 07be 45c8 f53c
00000180: 1776 1a3f bf00 8d3e 100d 7b3d 698c fdbe
00000190: daab d13e 5db7 7c3d 9c82 83bd 9e29 6dbe
000001a0: 81cc 0b3f c10a 7e3e fc68 afbd 9828 863e
000001b0: 9482 02bf 2da4 d43d 1126 bc3d 3d6d 07be
000001c0: b806 6e3e c4f4 37be 3039 a4be 8c64 183e
000001d0: 0d02 0c3f d7ce a53e 9a0d 93be 7281 9ebe
000001e0: 3e71 a23d 9516 d63e 2e04 343e ca46 06bf
000001f0: d2de 1f3f bbf4 30be 360a b7bf 32f0 b23d
00000200: 6780 973e d65f 9b3d ecb9 49bf 0d5d 55be
00000210: aafb 34bf 3fb3 983e 98b9 c6be 3b4b 60be
00000220: 6673 753e 7e88 03bd 919b c3be 9b7f a2be
00000230: 1841 363d b425 aebe bdeb 96be 853f 993e
00000240: 837e ba3f 9b73 2b3e bb6a 723f c84e 4cbe
00000250: f68b a83c a456 e23d 7f37 54be 1386 dbbc
00000260: cb78 b43d 2001 d33e ec04 1dbe bfb9 1ebe
00000270: 01db 7abf 93d9 043f 244a a5bf 4eb8 adbf
00000280: 050e ae3d ea9e 343f 5a95 c43e 9626 f6bd
00000290: 8b07 ae3d f6b9 e03f b482 083e 4e9b b53d
000002a0: e8ca cf3e 61cd 1b3f 745f b8bf 4e5e 303f
000002b0: 997a 46bf 76b0 0e3f ccac eb3d 73bd c5be
000002c0: fcf4 77bf faca b0bf 4744 303d 2b9b ea3f
000002d0: 1020 bbbe 7c8a ab3e 84fd 35be 6288 80bf
000002e0: ea72 5a3f f251 ab3e f5d8 cebe 190a 273e
000002f0: 5d8e a0be c616 143f 510d 7d3d b10f 87bc
00000300: 4cc4 6f3f c7e2 c5be 6ff7 1abf eff6 653f
00000310: 1e77 82bf c6ab dabe 2518 83be 1e5e 323e
00000320: a2da 933f b82b 10bf a718 963c 3078 d83f
00000330: a977 913e 54fb 18bf df86 863e 2881 2b3f
00000340: a487 6dbe 2e41 9fbf 4421 8e3e ca11 0c3f
00000350: 7cd3 c2be fbe8 abbd aeb8 cb3e d06c 17be
00000360: 665f 7b3f 172f e4bc a444 d5bf 0a94 04bf
00000370: 729d 9dbd 7c3d d13e fc33 a6bd bc58 acbe
00000380: 3d8e 333f 22d3 663e 80df 11bf 695d 063f
00000390: 1830 9e3e f556 203e 0715 28bf f79d 08bf
000003a0: d303 a43e ced7 0d3e 76be c13e 45ed 07c0
000003b0: 0b4f 08bf 3236 5b3e 974a 27bd b0b3 193e
000003c0: 84a4 0ebf 9b52 2ebe 758d ccbc 7f25 85be
000003d0: 29c1 e53e e04f 45bf 936f b33d 4e74 3a3f
000003e0: f937 423f fb94 15be 9b4a 243e 4983 57bf
000003f0: 7a6e 09bf 8b28 8abe 8ca3 b2be 86ff 6cbe
1.3319975 0.06733018 1.637228 -0.2416136 -0.1909971 -0.2851924 -0.33912545 0.1722
0.8667435 0.38158333 -0.30488217 -0.27700058 0.48571754 1.05136 -0.3500346 0.06333691
-0.24006414 0.29963276 0.47465813 -0.17931603 -0.15367718 -0.33815804 -0.065300696 0.17247017
0.49757344 -0.014144229 -0.73783123 -0.0056593535 0.030602852 0.28626543 -0.08485984 -0.76659364
-0.72708404 0.5150442 0.3066487 -0.16336487 -0.025932161 0.054164454 -0.21212713 -0.7115556
-0.062348317 -0.2496695 0.09312773 -0.066170596 1.0836565 0.6033181 -0.12366724 -0.30952188
-0.52679724 -0.059277315 -0.34872538 0.023038296 0.24927533 -0.7377176 0.5376364 0.05597326
-0.076021604 -0.36085317 0.09723556 0.5934334 0.28030738 -0.67160267 1.0431271 -0.23230602
0.13801177 -1.2807208 0.857081 -0.6974178 0.42038688 0.15537165 0.15494178 -0.54605144
-0.083067 -0.2821655 -0.527576 0.62553555 -0.20376141 0.37779415 0.30810857 -0.036430065
-0.33392018 -0.20385063 0.03774853 0.18910195 0.5589573 0.13275121 -0.43135822 0.11728542
-0.2520783 -0.21009691 -0.098299965 -0.56990993 -0.75724006 0.53910893 -0.13255323 0.030002723
0.6033644 0.27539632 0.061291754 -0.49521187 0.40951425 0.061698306 -0.06421396 -0.23160407
0.54608923 0.2480879 -0.08564946 0.26202846 -0.50980496 0.103828765 0.09186948 -0.13225265
0.2324475 -0.17964464 -0.3207488 0.14882106 0.5469063 0.3238437 -0.28721315 -0.30958134
0.079317555 0.41814104 0.1757972 -0.52451766 0.6244937 -0.17280857 -1.4299991 0.0873722
0.2959015 0.07586639 -0.7879932 -0.20836277 -0.7069651 0.29824254 -0.38813472 -0.21903698
0.23969802 -0.03211259 -0.38204625 -0.3173798 0.044495672 -0.3401314 -0.2947673 0.29931274
1.4569858 0.16743319 0.9469411 -0.19951928 0.020574551 0.11051682 -0.20724295 -0.02679733
0.08812102 0.41211796 -0.15333909 -0.15500544 -0.97990423 0.5189449 -1.2913251 -1.357187
0.08498768 0.70554984 0.38395196 -0.120190784 0.084975325 1.7556751 0.1333111 0.08867513
0.40584493 0.6086026 -1.440413 0.688939 -0.7753082 0.5573801 0.11507568 -0.386211
-0.9685819 -1.3811944 0.043033864 1.8328604 -0.365479 0.33504093 -0.1777249 -1.0041621
0.85331595 0.33460957 -0.403999 0.16312446 -0.31358615 0.5784725 0.061780278 -0.016486974
0.936589 -0.3864958 -0.60533804 0.89829916 -1.0192602 -0.42709178 -0.25604358 0.17418715
1.1551096 -0.5631671 0.018322302 1.6911678 0.28411606 -0.59758496 0.26274773 0.6699395
-0.23196274 -1.2441766 0.27759755 0.54714644 -0.38051975 -0.08394047 0.39789337 -0.14787602
0.9819244 -0.027854485 -1.6661572 -0.5178839 -0.07696046 0.4086722 -0.08115384 -0.3366145
0.70138913 0.22541478 -0.5698166 0.5248628 0.30896068 0.15658171 -0.65657085 -0.53366035
0.32034168 0.13851854 0.37840623 -2.1238568 -0.5324561 0.21407393 -0.04084262 0.15009952
-0.5571978 -0.17023699 -0.024969796 -0.2600517 0.44873932 -0.77075005 0.087615155 0.72833717
0.7586666 -0.14607613 0.16044085 -0.841847 -0.536842 -0.26984057 -0.348904 -0.2314435

bias_ih_l0 f4 [36]
00000000: 137f 083c 5831 993e 2751 4e3e 579c ec3e
00000010: 7d3e 64bb 85c3 003e df21 80bc bef4 3b3e
00000020: 3cd3 b33e 988d ff3e 5710 14bd cc88 9a3e
00000030: f35f 973d 7049 ab3d b744 8b3d 1a24 a0bd
00000040: 858d 11be ea9a 0cbf dbe2 4cbe bca6 88bd
00000050: d6a4 123d 48ff 183e 9e12 523e 3133 31bf
00000060: 187b a7be 7447 753e aa92 e9bd 4b05 00be
00000070: c709 e83d 47d4 063f 86fc 90bd 7149 ccbe
00000080: a994 983d 77ee 8f3e 1913 3ebe 01e0 83be
0.008331078 0.2992046 0.20148145 0.46213028 -0.0034827285 0.12574585 -0.015641151 0.1835508
0.35122097 0.49912715 -0.036148395 0.30182493 0.07391348 0.083636165 0.06800216 -0.07819386
-0.14214142 -0.5492388 -0.20008413 -0.06672427 0.03580173 0.14941132 0.20514914 -0.69218737
-0.327111 0.23953038 -0.11404927 -0.12502019 0.1132999 0.5266766 -0.07079415 -0.3989978
0.0745023 0.28111622 -0.18561973 -0.2575684

bias_hh_l0 f4 [36]
00000000: f1e8 a33c eb56 22be d526 70bc d1cd e73e
00000010: 1ddb 98bd 5f5c d83c 9b2d b63e ac7a 72be
00000020: 481a d03e 305f d63e 1db6 39be 018b 5f3e
00000030: 5191 f83d 85c3 423d d3be c3be 0034 df3c
00000040: 0e2c 8b3c 18e0 29bf 3d3b 13be 0c00 9738
00000050: db95 793e 4069 51be fb5d 903e 9907 16bf
00000060: fe44 16be a77a 25be 403b ad3e f21c ca3e
00000070: ce9f 523e bf7c b7be 111e a53e 90a6 d5bd
00000080: cbc9 c63e eef6 ba3e 8c04 9a3c 5a31 b3be
0.020008536 -0.15853469 -0.014657696 0.45274213 -0.074636675 0.026411233 0.3558167 -0.23679608
0.4064505 0.41869497 -0.18135877 0.2183037 0.12137092 0.047549743 -0.38231525 0.027246475
0.01698878 -0.66357565 -0.14378066 7.20025e-05 0.24373572 -0.20450306 0.281967 -0.58605343
-0.14674756 -0.1616007 0.33834267 0.3947521 0.20568773 -0.3583736 0.322495 -0.1043216
0.3882583 0.36516517 0.018800996 -0.3499859

weight f4 [20, 12]
00000000: 391c b2be 1b6d e6be 6f07 213e 5eb6 fb3a
00000010: 71bb 343e acb2 363d 808f 333e a9fe a83e
00000020: f77b 7d3e 55fd 923b f85a f33d 4a55 703d
00000030: 9e36 913e 5fe2 a0be 27bf 00bd 3615 35be
00000040: 5f03 02be ea85 c6bd 6067 7f3d af00 9f3e
00000050: 4717 c03e b704 6f39 8aee 6c3e 8cc4 af3d
00000060: e390 783e 7788 fabd cdfd 11be ca3a da3e
00000070: 7764 d3be 921b e33d f74f 8fbe 31bb 0ebe
00000080: 61f0 823e d4ee c33d df28 153e 39a8 0b3d
00000090: 1af5 043d 7865 bbbe 1578 edbd 90de 2b3d
000000a0: a3d6 92be 36c4 da3d fcdd 6d3e 9c16 573e
000000b0: 1880 d03d e00d dc3e aca6 a83d 6c57 b63e
000000c0: 481c 2c3e dfe2 a83e c71a 37be e781 213e
000000d0: 9d8f 6ebe 16dc 9dbe 4bd9 57bc 4dbe f3bb
000000e0: f858 13be a5be 5ebe 663e 4e3e aa3c 943e
000000f0: ee65 31be 0cc5 d23d 678e 8fbe f46e b8bc
00000100: 50ec c43e 0eb1 a2be 7b64 33be 2cd4 ab3e
00000110: a1e1 2cbd 5ab1 0a3e 0bf0 04be 5595 76bb
00000120: 6cf1 efbe 64d0 e53d 4a31 d03e 9a1a 463d
00000130: b7ae 05be 7070 873d 4a2c 5b3d 26bc 253d
00000140: 4912 eebd ff56 67be ef03 703d 31f9 773d
00000150: b913 9fbd bafd 4dbe 11d0 a4be a110 ff3e
00000160: dbc5 983e 55e5 a43d 7563 7bbe 622e 37be
00000170: c97a 673e a4db 8cbe 5310 893c 449d 4bbe
00000180: fb2d 933e f499 6cbe 0236 dcbd 6e0c 883d
00000190: 07ee 053e e002 973e 1704 88be 368c b73d
000001a0: d148 1abe ba29 21be 03cc 95be 8c0c 3a3e
000001b0: bc1a 43be 218f 8b3e ea7b f8be fee1 273b
000001c0: 4c4f cf3e f2fe 9d3e 5eb9 8ebe 6e65 c8bd
000001d0: 7616 e4bd ba2d 043e 5467 b5bc 294f 87be
000001e0: e40c 703e b08a 1dbe d9ce 2b3e 3091 4cbe
000001f0: 1bcd a5be 5e61 ac3d 48be 2c3e 6af5 8abe
00000200: 3b9e f43d 749c 253d cb14 023d 2ec2 393e
00000210: 1c02 723e 651e 01bc d534 103e 6f02 6c3e
00000220: ca43 e73d e1b1 f0be 85e8 5cbe 7bcc 8dbe
00000230: fc49 20bc 054d a4be 94de 2a3e 6ee4 0ebd
00000240: aa73 cd3d cbf0 523e 0b69 09bf 8b80 ffbd
00000250: 2d16 743d e6f3 e13e 48ef 86be 8a4d 5d3e
00000260: b4db 5abe cae4 f5bd 506e 1f3e 37f3 6ebe
00000270: f3ab 073d c1c2 82be 4931 d63e 33f0 8fbe
00000280: f17d 74be 1607 f33e a45b 93be bcd3 0abe
00000290: 0847 0b3e 4978 45bd cbe7 8d3b 6be6 cabe
000002a0: a102 aebe 40d0 8f3e e0fd d5be 8e5b f63c
000002b0: 462d 823c 60e8 5e3d 9562 883e f85b 853e
000002c0: 6be6 09bc 859b 9abc 8f60 4c3d 6f6c 8d3e
000002d0: 1239 c83e 926a 71be 20f7 02bd 9abe 8dbe
000002e0: 3d10 863e dfd8 3f3e 048b 053d a2a9 27be
000002f0: 3896 8dbe 9912 613d bee2 eebb c35b a6be
00000300: 11d7 663e 9f50 51be 4033 393e 0c1b aebe
00000310: eb5d c63e 0346 96be 45fa fbbd 0d13 f93d
00000320: 894e 303e 66bf c4bd b184 a73d 3254 603d
00000330: 34e1 893e 8da4 af3e 381c efbd 282c 0cbf
00000340: 5bb3 d63e 0d7a d33c 0bf1 0e3e 563f 7d3d
00000350: 3998 98be 81e3 bcbd 1fa0 90be f824 56be
00000360: 9ccd 5a3e 4857 4a3d d49f 973e e69b 9ebe
00000370: 1a16 96bd 857d 82be 0746 003e 4c39 39be
00000380: c85e cf3d cafa 5ebe 187a 2b3e 4c53 51be
00000390: fa66 c53e 4d50 ae3d 0159 ecbe 516c a7be
000003a0: 089a 6b3e 1405 43be e9a0 953e 634f 653e
000003b0: 41f8 11be 0513 803d 2771 403c 061c af3e
-0.34787157 -0.45005116 0.15725492 0.001920413 0.17649628 0.04460399 0.1753521 0.3300679
0.2475432 0.004485766 0.11882585 0.058675088 0.28361982 -0.31422707 -0.031432297 -0.17683873
-0.12696598 -0.09693511 0.062354445 0.3105521 0.3751776 0.00022794573 0.2313787 0.0858241
0.2427402 -0.1223306 -0.14256974 0.42622977 -0.41287586 0.11089243 -0.27990696 -0.13938595
0.2557402 0.09567037 0.14566372 0.034095977 0.03246031 -0.36600852 -0.115951695 0.0419603
-0.2867938 0.106819555 0.23229212 0.21004719 0.10180682 0.42979336 0.08234915 0.35613573
0.16807663 0.3298559 -0.17881308 0.1577221 -0.23296972 -0.30831975 -0.013174365 -0.007438457
-0.14389408 -0.21752413 0.2014099 0.28952533 -0.1732404 0.1029149 -0.28038332 -0.022513844
0.38461542 -0.31775707 -0.17518799 0.33560312 -0.042207364 0.13544217 -0.12982194 -0.003762563
-0.46863878 0.11221388 0.40662605 0.048365213 -0.1305493 0.066132426 0.053509034 0.040462635
-0.11624581 -0.2259178 0.0585975 0.06054038 -0.07767434 -0.2011632 -0.32189992 0.49817374
0.29838452 0.08051554 -0.24549659 -0.17888787 0.22605433 -0.27511322 0.016731417 -0.19884211
0.28746018 -0.23105603 -0.10752489 0.06642996 0.13079081 0.2949438 -0.2656562 0.0896229
-0.1506684 -0.15738574 -0.2925721 0.18168849 -0.19053167 0.27257636 -0.4853204 0.002561688
0.40490186 0.3085857 -0.278758 -0.09784971 -0.111370966 0.12908068 -0.022143997 -0.26427582
0.23442417 -0.15384936 0.16778125 -0.1997726 -0.32383046 0.08417009 0.16869462 -0.2714036
0.119442426 0.04043241 0.03175811 0.1814048 0.23633617 -0.007880782 0.14082654 0.23047803
0.112922266 -0.4701071 -0.21573074 -0.2769507 -0.009783264 -0.3209001 0.1668647 -0.034885816
0.10031827 0.20599668 -0.5367591 -0.124756895 0.05959146 0.44131392 -0.26354432 0.2161161
-0.21372873 -0.12006529 0.15569425 -0.23334967 0.033122968 -0.2553921 0.41834477 -0.28112945
-0.23876168 0.47466344 -0.28780854 -0.13557333 0.13601315 -0.048210416 0.0043306104 -0.3962892
-0.3398638 0.2808857 -0.41795254 0.030072954 0.015890729 0.05442083 0.26637712 0.2604673
-0.008416752 -0.018872986 0.049896773 0.2762179 0.3910604 -0.2357581 -0.031973958 -0.2768448
0.26184264 0.18735074 0.03260328 -0.16373304 -0.2765367 0.054949377 -0.0072902134 -0.32491884
0.22542979 -0.20440911 0.18085957 -0.3400501 0.3874353 -0.2935029 -0.123035945 0.12161837
0.17217459 -0.09606819 0.08179606 0.054767795 0.2692963 0.3430523 -0.11675304 -0.5475488
0.41933712 0.025815034 0.13959138 0.06182798 -0.29803637 -0.092230804 -0.28247163 -0.2091254
0.21367496 0.049399644 0.29614127 -0.30978316 -0.07328434 -0.2548639 0.12526713 -0.18088263
0.101255 -0.21775356 0.16745794 -0.20441931 0.38555127 0.0851141 -0.46161655 -0.32699826
0.23007977 -0.19044906 0.29224327 0.22393565 -0.14254858 0.06253628 0.011745728 0.34201068

bias f4 [20]
00000000: 5160 61be 82f2 1dbe 0e3f 96be b276 993e
00000010: 77ef 4a3e dba5 6d3d b967 95be f931 8dba
00000020: 4150 88bd fef6 503e ba6c 973d 94fb 2b3d
00000030: f0a0 8a3c f4d5 a1bd 4fad c43d eda3 983b
00000040: 4285 483e 7751 60bc fa3b 3bbe 2378 083e
-0.22009398 -0.1542454 -0.29344982 0.2997337 0.19817911 0.0580195 -0.29180697 -0.0010772339
-0.06655932 0.2040672 0.07393785 0.04198797 0.016922444 -0.079021364 0.096033685 0.0046582134
0.19582084 -0.013691298 -0.18284598 0.13327079

weight f4 [20, 20]
00000000: af57 6d3e 5cea 643e 0097 673d f9c3 8a3d
00000010: c7af 083e 8c9f 923e 6c05 0c3e d438 b03d
00000020: bf57 e43d f4ba 2dbb 5621 07be 1a45 02bd
00000030: 6f18 353e d3ae 92bd b3e8 563d 9868 4ebe
00000040: a4da bfbd c571 43be 7951 853e 3d2d 73bd
00000050: f34c 3b3e 558c 96bc 3f42 19bd 434f 5a3d
00000060: 04e8 48be bab9 0d3e b3de 0bbd c460 2abd
00000070: d62c 2abe ab71 45be 964f b73c f958 8e3d
00000080: 9694 01bd f8ba 503e e9c2 373e 3907 22bd
00000090: ee17 6abd c35f 58be ad2c fcbc fdf8 043e
000000a0: 32f0 85bc a42e acbd 7663 0cbd efc4 1cbe
000000b0: 5ddb d33d 571f 213e 5e83 2a3e e33a fabd
000000c0: 40ba d7bd b9a5 c5bb 2018 a43c 59c7 a2bd
000000d0: e488 ab3d 8d14 5a3e 04b7 13be 985c 13be
000000e0: 09fb 5ebe 4ea6 37be 857d ec3d 52b3 703c
000000f0: 0485 b43d 1abf 283d 3aab 023e b586 13be
00000100: a9cc 3ebe 19cc 313d 7645 71bd 381a 773c
00000110: 77c9 c63d aabd c5bd f51b a23d 8251 ed3c
00000120: 875e 223e 85d2 153e f65d ce3d 6e1d 8cbe
00000130: 629f d03b 9d12 14be 5886 793e 7b12 5a3e
00000140: 7e25 62be 026f c4bd 3981 f73e d19e 943d
00000150: e2f9 123e f067 82be 0a11 2fbe e0a1 253f
00000160: e683 a43e 27c5 973e feb0 41bd 0f80 ac3a
00000170: 19ac b53e ab81 afbe 3f55 5d3e 1a94 5d3e
00000180: 685e 99be 7c93 9bbd 3877 99be 7852 d6bc
00000190: aa61 8c3e 9796 64bb 6a9f 6f3d bd79 d939
000001a0: 90d7 ba3d 788e 63bd 29eb 533e a2e4 1f3e
000001b0: 7199 8dbe dce9 cfbe 6603 5fbd 3008 a03e
000001c0: 702e 2fbf 3cca aabe f56b dcbd e008 16be
000001d0: aaab eb3d edb4 87be 42d6 a13d d56c 8dbe
000001e0: 154c d8bd 004b 263e e440 b2bd 4964 143e
000001f0: c271 bc3c e965 7c3e 59b0 c6bc 69b6 213e
00000200: 01c6 0abd 09dd c6bc 7b03 ab3d b7a0 12be
00000210: 30af 7cbd 5af8 e2bd c137 c7bd 0e8e 083e
00000220: 65c5 433e 6359 3dbe 74f2 47be 215b 54be
00000230: d750 59be 281b 05bb 5117 9e3e efb9 38ba
00000240: b727 3f3d 5d89 b8bd b6cc 243e 8419 c3be
00000250: 5c37 d13d 105f d4be 66fb 163e 20d3 be3d
00000260: 04ae 2cbe 321f 563f c367 e5be dbbe 6abd
00000270: 8817 38bd e044 9dbe 95c4 513e 9afb d1be
00000280: e65a a0bd f03f f1bd 2d70 92bd 3b96 023e
00000290: 0333 37be 9762 0b3e a4f4 35bd 8d69 263e
000002a0: 452f 813d 616e 653d 9f8a 07be 0dce 493d
000002b0: a12b aabd f0cd 773e 1b34 dcbc 9712 61be
000002c0: 9529 e9bd 26a1 aa3d a2a8 1d3e 4d80 0c3e
000002d0: ae33 583c 5a03 d83d 6957 c1bd be41 353c
000002e0: 106d 2abd 885c 37be 2a89 35be 262b 7f3d
000002f0: e0ea 153e 270f b9bd 1e05 a3bc 244d 373e
00000300: a211 59be 5c41 4d3d 01be 92be 1961 763e
00000310: 1164 ec3e 78ed eb3d dd96 0f3e 1af0 243e
00000320: 21cb 92bd b0c7 44be ea4c a8bd 25c4 8ebe
00000330: b3d5 c13d 19a0 383e ca01 8cbb e008 9a3e
00000340: 0c95 f6bc 37d3 a73e b750 0dbe 684c a73d
00000350: f691 3a3e 973b 06bf 9fee 343e 4cb8 9f3d
00000360: 98da 4b3c e1f9 1e3e 2597 8abd 344b 403e
00000370: b238 d03c 80fb 413d 72da 473e aea3 e83d
00000380: c5a4 1ebe b234 813e 73b3 debc 0112 37be
00000390: a679 2d3e 2752 eabd f2fc 0bbe f7d5 7bbe
000003a0: 53fd 96bd afc0 f7bd a3c3 85be 34c4 8f3d
000003b0: 6f57 42bd a27d 4fbe e9a9 d0bd e5c5 343e
000003c0: 342f c53d 7701 63be f4a0 1abd 3734 a3be
000003d0: 09fc 6dbe c862 43be 5a4b 9c3d 1e3a c13e
000003e0: fa81 c53e 9435 053e 2666 51bd 1323 fe3c
000003f0: 64f9 a93c 6c78 153e 045c 76be 059f 833e
0.2317798 0.22355026 0.05654049 0.0677566 0.13348304 0.2863735 0.13673943 0.08604589
0.11149549 -0.0026509138 -0.1319631 -0.03180418 0.17685102 -0.07162251 0.052468013 -0.20157087
-0.09367874 -0.19086368 0.2603872 -0.059369314 0.18291073 -0.018377462 -0.037416693 0.053298246
-0.19619757 0.1384038 -0.03414793 -0.04159619 -0.16618666 -0.19281642 0.022376817 0.06950564
-0.031635843 0.20383823 0.17945446 -0.03955767 -0.057151727 -0.2113028 -0.030783022 0.12985606
-0.016349886 -0.084073335 -0.03427454 -0.15309499 0.103445746 0.15734611 0.16651675 -0.12218263
-0.10533571 -0.0060317186 0.020031035 -0.07948179 0.08375719 0.21296902 -0.14425284 -0.1439079
-0.2177545 -0.17934534 0.115473785 0.014691191 0.08814433 0.041197874 0.1276063 -0.14406855
-0.18632759 0.043407533 -0.058904134 0.015081935 0.09706395 -0.09655316 0.07915489 0.02896953
0.15856372 0.14631088 0.100765154 -0.27366203 0.006366656 -0.14460225 0.24367654 0.21296112
-0.22084615 -0.095914856 0.48340777 0.07256854 0.14353135 -0.25469923 -0.17096344 0.64700127
0.3213188 0.29642603 -0.047287934 0.0013160723 0.35482863 -0.34278616 0.2161455 0.21638528
-0.2995484 -0.0759649 -0.2997377 -0.026162371 0.27418262 -0.0034879798 0.05850164 0.00041480167
0.091231465 -0.05555579 0.20695175 0.1561456 -0.2765613 -0.40608108 -0.0544466 0.31256247
-0.68430233 -0.33357418 -0.10762779 -0.14651823 0.11507352 -0.26505223 0.079021946 -0.27622095
-0.105613865 0.16239548 -0.08703783 0.14491381 0.023003463 0.2464825 -0.024254011 0.1579224
-0.033880237 -0.02427532 0.08350273 -0.1431912 -0.06169051 -0.110825256 -0.09727431 0.1333544
0.19118269 -0.1849113 -0.19526082 -0.20737888 -0.21222244 -0.0020310376 0.30877164 -0.0007046749
0.046668734 -0.09010575 0.16093716 -0.38105404 0.10215637 -0.41478777 0.14744338 0.09317613
-0.16863257 0.8364135 -0.44805726 -0.05731092 -0.044944316 -0.3071661 0.20485146 -0.4101227
-0.078298375 -0.11779773 -0.07150302 0.12752621 -0.17890553 0.13611828 -0.04442276 0.16251202
0.06307844 0.05601347 -0.13236474 0.04926877 -0.08309103 0.24199653 -0.026880315 -0.21979748
-0.11384884 0.08331518 0.1539636 0.13720818 0.013195915 0.10547514 -0.094405 0.011063037
-0.041607916 -0.17906392 -0.17728105 0.06229701 0.14640379 -0.09036093 -0.019899901 0.1790052
-0.21198133 0.05011116 -0.28660586 0.24060477 0.46170095 0.11519903 0.14022394 0.16107216
-0.0716765 -0.192168 -0.08217795 -0.2788402 0.09464588 0.18029822 -0.004272674 0.30084896
-0.030100368 0.32778332 -0.13800322 0.0816887 0.18219742 -0.52434677 0.17669152 0.07798824
0.0124422535 0.15525009 -0.0676711 0.18778688 0.02541766 0.04735899 0.19516924 0.113593444
-0.15492542 0.25235516 -0.027185177 -0.17877962 0.16940936 -0.114414506 -0.1367071 -0.2459334
-0.073725365 -0.12097298 -0.2612582 0.07019845 -0.047446664 -0.20262769 -0.10188658 0.17653616
0.09628144 -0.22168528 -0.037751153 -0.31875774 -0.23240675 -0.19080651 0.0763156 0.37739652
0.38575727 0.1300872 -0.051122807 0.031022584 0.020748802 0.14596719 -0.24058539 0.2570726

bias f4 [20]
00000000: 4355 f33c 473b 06be 66ce 8b3d a0fb ba3d
00000010: 5950 dd3d fbb8 143d 7b58 503c dede 8abe
00000020: 1927 7dbe b8c1 bc3d e187 ca3d 39c8 973d
00000030: f213 dfbd f12f b23d 58e4 56bd 80b7 6bbe
00000040: 4d3f c63e be62 3d3c b542 aabd 4a34 20be
0.029703742 -0.1310855 0.06826477 0.09130025 0.10806341 0.036309224 0.012716408 -0.2712316
-0.24721946 0.092166364 0.09889198 0.07411236 -0.10892476 0.0870055 -0.05246386 -0.23019218
0.3872017 0.0115591865 -0.083135046 -0.15644947

weight f4 [64, 32]
00000000: 32c5 e83e 695e 853b 43cf 6bc0 0b64 1ebd
00000010: 4099 1c3f f9e9 b93d 98c5 8ebf eb64 833e
00000020: 1626 07bf 1cb2 b3be 3223 fd3d 729b d93e
00000030: 40d4 4e3e 48c0 e23c 7cc5 30be 1485 10bd
00000040: 5cc0 f9bd f79c 99bd 3bb2 34be b245 83bd
00000050: 18b4 6f3d 1111 cfbf b3f4 22be 853c 233c
00000060: a328 a0be b147 ebbe ab01 91bd 78a5 923d
00000070: a57a 003e e2fe ab3e 66d6 fb3d 1aa2 9a3d
00000080: f4c1 cebd 5a74 943e 0a59 533e 406f f73e
00000090: 604f c13e 2ab2 a6be 69a0 fa3f d67f d03d
000000a0: 8d3d 32be cb9e 46bd 8338 063f 8911 043f
000000b0: c78d 2fbe 1432 f6bd 582f a0bd c0b7 0a3e
000000c0: 61ce 51be 5ee4 f4bc d095 1cbe 33cb 2cbe
000000d0: 43eb 10bc 0c3b 5ebe 1763 0d3d 5ed5 9fbd
000000e0: b144 0f3e 9b02 2a3e 9b87 1abe f4cd b8be
000000f0: 0a22 143e 0aad e0be f1b9 bcbc a424 37be
00000100: 7642 093f 6abd c63c 8c7d 2fbf e250 893a
00000110: a8f3 583f 4bc2 453d ed49 553f caf0 98be
00000120: cc2a 9cbe 4377 34bf b095 913e 94f0 853e
00000130: 5f97 99bd 5902 143e 348f 913d 3143 07be
00000140: 12c9 003e 9a45 263e 7d7d 89bd f880 a6bd
00000150: 1d62 a7bc 473a 79be c4c2 8cbd 1bdd cd3d
00000160: 7e22 53be 488b 4abe 185b 193d a81c 303e
00000170: 2fae 71be f4e9 36bc c066 7b3d 1dae 13bf
00000180: a61e fbbf 82c6 d23e d433 413e d9af 4a3f
00000190: ea48 c7bc e15a 98be a589 b3be 3297 46bf
000001a0: 4dd9 28bd 2435 09bf b44a a23e c7b1 3a3f
000001b0: 0047 c6bd 45f5 123e ee27 f53d 5e65 c73d
000001c0: c847 abbd 8f10 b7bd 33db f13d bd7e fc3e
000001d0: 1503 2cbe 84d6 90be 8ba1 363e 5bbd e1ba
000001e0: c8da e0bd 2532 bcbe 04dc 0dbe 0808 253e
000001f0: ddf1 b73c c9c9 863e fae9 10be 309e 6fbe
00000200: caaf 2b3f 4812 cc3e 70f8 21bf 0bdd 8bbe
00000210: 64df 9dbe 9032 a43e 4e66 02c0 2097 243b
00000220: 9ffe 59bf 1fc4 95bf a267 b1be f3f8 073f
00000230: 65a5 983d 60d8 293e d638 ae3d f6eb f8bd
00000240: 15f4 3dbe 98f1 da3d 5035 eb3c 85ef 343e
00000250: 1358 d1bc 0ab3 083d 2dda 843d 3e4c d73d
00000260: 0ac5 dcbd 9eee 7d3e 5caa 853d 53b4 b8be
00000270: ef74 08be 8e5a 3dbe eadf 563c ad8c f93e
00000280: d433 51bd 216a 26be 42f2 adbd c7ab b8bd
00000290: 09be a6bd 70f1 503d bd12 293e 717d 253e
000002a0: d0bb e4bc d456 613d 6016 e33b 99a0 2cbe
000002b0: cdbc 07be fcbc 323d c0e9 d9bb c5c9 0fbe
000002c0: 03bb 19be 73b4 edbd a8ec da3c e3ec 14be
000002d0: 66ff 25be 3102 c1bd 9817 b43c 6bf5 17be
000002e0: 7893 e0bd 66d7 26be 3fa6 0cbe f8ec 0cbd
000002f0: 9052 3e3c e6d6 e9bd c83f a8bc e0cd 643c
00000300: c8f8 5ac0 86d6 1f3c ca77 f63e 4292 6d3f
00000310: 39ff 42bd dd9f 683c 54a4 43bf a569 44bf
00000320: e3f4 85bf 8879 41bf d736 063e 0b8b dbbe
00000330: 0957 033e 7516 343e 9d17 30be a8dd 07bd
00000340: 73f1 6dbf e52d b53d be02 a33d 1c82 583e
00000350: 109b d83d 766d 653e 67dd a13b 9ca3 ab3d
00000360: f3d5 bdbe cce2 80be 78be b93c ae1b e2bb
00000370: bbf2 063e e117 3ebe 70d2 5dbd e171 8f3e
00000380: e93b d53d ff6e cb3d af25 11be fa5d 823e
00000390: ccb3 9abd 3644 f7bc 650f 3a3c c010 96bc
000003a0: 278b b43d 75cc 0abe cdaf e83c 9dda a8bd
000003b0: b2e2 ac3d 3b8d ffbd 866f d7bd 005b 963b
000003c0: 7256 91be ab6f 71bc c093 cf3b f14a e5bd
000003d0: a0bc 9bbb 17a2 3d3b ecaf 1a3c cc8c 633d
000003e0: b575 1fbe b6e6 663d ab04 1fbe d99c bf3d
000003f0: bbac 7bbd 8fdc 703d 9cc1 253d 634a 14be
0.45462948 0.0040700925 -3.6845253 -0.038669627 0.6117134 0.0907783 -1.1154051 0.25662932
-0.5279249 -0.35096824 0.123602286 0.42501408 0.20198154 0.027679577 -0.17262834 -0.035283163
-0.12194893 -0.07500642 -0.17646115 -0.06409778 0.05852136 -1.6177083 -0.15913658 0.009963159
-0.31281003 -0.45953134 -0.07080396 0.07160467 0.12546785 0.33592898 0.12296753 0.0755045
-0.100955874 0.2899502 0.20639434 0.48327065 0.3775587 -0.32557803 1.9580203 0.10180633
-0.17406292 -0.04849128 0.5242998 0.51589257 -0.17143928 -0.120212704 -0.0782153 0.13546658
-0.20488884 -0.02989405 -0.15291524 -0.1687439 -0.008845153 -0.21702212 0.034518328 -0.078043684
0.13991047 0.16602556 -0.15090792 -0.3609463 0.1446611 -0.43882018 -0.023037883 -0.17885071
0.53617036 0.024260242 -0.68550944 0.0010476375 0.8474679 0.048280995 0.83315927 -0.29871207
-0.305014 -0.7049448 0.28434515 0.2616011 -0.07499575 0.1445402 0.07107392 -0.13209225
0.12576702 0.16237488 -0.06713388 -0.081300676 -0.020432526 -0.24338637 -0.06873086 0.10051938
-0.20618626 -0.19779694 0.03744039 0.17198431 -0.23601602 -0.011164177 0.061377287 -0.5768755
-1.9618728 0.41167074 0.18867427 0.7917457 -0.02432676 -0.29756835 -0.35065952 -0.77574456
-0.04122286 -0.5359671 0.3169762 0.72927517 -0.09681511 0.14351375 0.119705066 0.09736131
-0.083633006 -0.08938705 0.11809387 0.49315444 -0.1679805 -0.28288662 0.17835061 -0.001722257
-0.10979229 -0.36757007 -0.1385346 0.16116345 0.022454197 0.26325825 -0.14151755 -0.23400187
0.6706511 0.39857697 -0.6326971 -0.2731708 -0.30834496 0.32069826 -2.0374942 0.0025114492
-0.85154146 -1.1700476 -0.34649378 0.5311424 0.074534215 0.16586447 0.08506934 -0.12154381
-0.18550141 0.106906116 0.028711945 0.17669494 -0.025554692 0.03337387 0.06486926 0.10512589
-0.1077977 0.24798056 0.06526634 -0.36075076 -0.13325857 -0.18491575 0.013114909 0.4874014
-0.051074818 -0.16251422 -0.08493473 -0.09017139 -0.08141715 0.051011503 0.16511054 0.16161133
-0.027921587 0.055014446 0.0069301575 -0.16858138 -0.13255616 0.04363726 -0.0066501796 -0.14041813
-0.15012746 -0.116066836 0.026724175 -0.1454349 -0.16210708 -0.09424246 0.021983907 -0.14839713
-0.109656274 -0.16293105 -0.13735293 -0.03440568 0.011616364 -0.11417942 -0.020538226 0.0139651
-3.4214344 0.009755736 0.48138267 0.92801297 -0.04760668 0.014198271 -0.7642262 -0.767237
-1.0465358 -0.75576067 0.13106857 -0.4287952 0.1282617 0.17586692 -0.17196508 -0.033170372
-0.9294655 0.08846644 0.079595074 0.21143383 0.10576451 0.22405037 0.0049397233 0.083808154
-0.37077293 -0.25173032 0.02267383 -0.0069002723 0.13178532 -0.18563797 -0.054155767 0.2801657
0.104118176 0.0993328 -0.14174531 0.25462323 -0.07553825 -0.030183893 0.011356209 -0.018318534
0.08815604 -0.13554557 0.02840414 -0.08244822 0.08441676 -0.124781094 -0.10519318 0.0045884848
-0.28386265 -0.014736096 0.006334752 -0.111959346 -0.0047527105 0.0028935724 0.009441357 0.055554196
-0.15572245 0.056372367 -0.15529124 0.09356088 -0.061444025 0.05880409 0.040467843 -0.14481501

bias f4 [64]
00000000: aba8 503e f86e 493e d789 02be 873e 06be
00000010: 91e1 2f3e 804f 583d c76d 7bbe e431 18be
00000020: 7f44 8fbe 15c4 bbbd d87b c63d e1cd a33d
00000030: ca4e 6fbd f5e8 fa3d 4a78 553e 12a5 babd
00000040: 5491 29be f423 cf3c e69d babc 3960 28be
00000050: 42f8 2a3b 8fe1 fc3d d279 b4bd 37e8 3abd
00000060: 5cd4 edba 5269 203e a9c4 6e3d 9550 933b
00000070: 7541 ea3d 0b59 2b3d 6374 81be 5797 33be
00000080: fc1c 2c3e 9dbc bfbe 8c89 8c3e 3516 9d3e
00000090: 385e 313e fb3d fc3d 30c2 f03d c168 073d
000000a0: d2b0 b63d ab3a 6cbd 1856 b43d 40ff 923d
000000b0: 6283 313e 3f92 4fbe 380a 5bbe d6d8 0d3e
000000c0: 07e5 16be 46bd a23e 50d8 863d d513 b8bc
000000d0: 20d2 b8bb b3f5 803e 555b 913e 0161 83bd
000000e0: 5b89 053e 2e20 45be 43df 78bd 5175 01be
000000f0: 8a7c 0ebf 6bf7 a93c 48f5 293e c086 6d3e
0.20376842 0.19671237 -0.12747894 -0.1310979 0.1717589 0.052810192 -0.24553595 -0.14862782
-0.27981946 -0.09168259 0.0969159 0.07998253 -0.05842475 0.12251464 0.20846668 -0.09113516
-0.16559345 0.025285698 -0.02278037 -0.16442956 0.0026087915 0.123477094 -0.08812298 -0.045631614
-0.0018144953 0.15665177 0.05829302 0.00449569 0.11438266 0.041832965 -0.2528411 -0.175382
0.16807932 -0.37448588 0.2744869 0.30681005 0.17321098 0.12316509 0.11755788 0.033058885
0.089204445 -0.057673138 0.088054836 0.07177591 0.17335275 -0.20270632 -0.21390617 0.13852248
-0.14735804 0.3178503 0.06584227 -0.022470394 -0.005640283 0.25187454 0.28389993 -0.064149864
0.13040678 -0.19250557 -0.060759794 -0.12642409 -0.5565878 0.02074786 0.16597474 0.23195934

weight f4 [1, 64]
00000000: 56dd b9bf 2427 4c3f 63c6 32bf eea5 c23f
00000010: c436 4abf f0c7 edbd 1171 8b3f c02d 593e
00000020: ccdc 9dbf 4b32 883f 828b 61bd 45b9 f33e
00000030: 53df 6dbf 2290 2d3f 7b59 f53d e26a efbe
00000040: d37e 1c3c 6c1a eabf 10de 7cbf a6f4 3d3d
00000050: ec5e 49bf 1450 e13e 06e8 923e 796c 973e
00000060: 7e57 a43e a800 62bf 502c 0b3f feab 883f
00000070: 0e94 56bf eb25 53bf 4da0 0f40 585b cebe
00000080: 2a86 523f eb99 6ebf 1eec 2f3d f467 b73e
00000090: 6e41 833e 76d8 fa3d 2a70 4d3f 977d 2f3f
000000a0: abfa cebf c73f 8ebd 9baa 663f b184 9e3b
000000b0: b81f e03f a14d d3bf a38c 2dbc d064 80be
000000c0: d99c 6fbf 1740 583d 6814 4c3e da83 75bf
000000d0: 5b42 8e39 e543 38bf 8187 10bf 44ce 85bf
000000e0: 5611 49bc 77b6 62bf acc0 20bf 2ca1 09c0
000000f0: 89e4 80bf 6cc1 683f 4218 f83e 23c9 e13e
-1.4520671 0.79747224 -0.69833964 1.5206888 -0.78989816 -0.11610401 1.089388 0.21208858
-1.2333007 1.0640348 -0.055064686 0.47602287 -0.9291889 0.67798054 0.11979958 -0.46761233
0.009551722 -1.8289313 -0.9877634 0.046375893 -0.78660464 0.44006407 0.28692645 0.29574946
0.32098 -0.8828225 0.5436449 1.0677488 -0.83819664 -0.82479733 2.244159 -0.40304065
0.8223597 -0.9320361 0.04294979 0.35821497 0.25635856 0.12248318 0.80249274 0.6855101
-1.6170248 -0.06945758 0.90104073 0.0048375954 1.750968 -1.6508065 -0.010592612 -0.25076914
-0.93598706 0.052795496 0.1992966 -0.95904315 0.0002713379 -0.719786 -0.5645676 -1.0453572
-0.0122722 -0.8855967 -0.62793994 -2.1504622 -1.0069743 0.9092014 0.48456007 0.44098768
